run/2024-11-10/08-40-12/critic/value_func_iter_3.pth (torch, 306471 bytes, 5 tensors)

value.0.weight f4 [256, 38]
0.0737025 -0.03142852 -0.1445784 -0.008437022 -0.06803245 0.0557323 0.04866837 -0.041771248
-0.17167036 -0.07114765 -0.14434445 -0.12485379 -0.1834008 0.02109162 -0.17698209 -0.2759248
-0.12496079 -0.012733103 -0.21414435 -0.0400694 -0.144569 0.038713366 0.27493054 -0.0054294206
0.023045132 0.16015297 0.10793876 -0.117131844 -0.09154258 0.041674368 0.07829333 -0.006627277
-0.10209106 -0.046306416 -0.14236736 -0.14178935 0.0073957313 -0.029524205 -0.1561804 -0.015538362
0.0364007 0.117788196 -0.01588408 -0.065491416 0.27329233 -0.03828664 -0.29080564 0.074262135
-0.18708475 0.06912701 0.17499645 0.10966162 -0.22716293 0.16439201 0.37177616 0.079443365
-0.030255651 0.0040226057 0.026305215 -0.019399252 -0.068922386 -0.20207956 0.10265076 0.047324676
-0.081808 0.059616998 0.049892772 0.09940666 0.28900066 -0.021913964 -0.10241492 -0.008118099
-0.044519093 0.06611588 0.013382118 -0.0081641255 -0.114786066 0.016791333 0.008229839 0.03859332
-0.035721082 -0.010335782 -0.03178125 0.040953647 0.04745299 0.16027066 0.07545286 0.15868984
0.10370004 0.1367014 -0.016078027 0.4734081 0.22666915 -0.14731683 -0.023472147 -0.009157586
0.10256613 0.15176032 -0.19322014 -0.05040133 -0.005212781 -0.06763855 0.079321444 -0.09122521
0.06931662 0.15052997 0.123108454 -0.026343148 0.16190036 -0.17366087 -0.042120814 -0.030146234
0.16440517 0.022945575 -0.17754237 -0.034837466 -0.070972495 -0.052305687 0.10132016 0.1535352
0.10644734 0.044388667 0.08103227 -0.08038901 -0.029660402 0.0051401444 0.098289005 -0.1813183
0.08829541 0.08912989 0.0900663 -0.18037567 -0.012234489 -0.0007399482 0.0938988 -0.059243087
0.028334824 -0.029366687 -0.04150792 -0.05105185 -0.18220064 -0.13854873 0.14328095 -0.04134179
-0.035604056 -0.105778895 0.11051959 0.084793314 -0.13945983 0.034999907 0.08828847 0.057698987
-0.061603453 -0.13948745 -0.14062314 -0.010873698 0.053491108 0.13470043 -0.09704076 -0.15480094
0.037057742 0.014399491 -0.0179622 -0.10784279 -0.16662836 -0.030875264 0.055520196 -0.38849226
-0.21577686 0.04719733 0.08153378 -0.06493959 -0.15270413 -0.04740468 -0.042033188 -0.056241546
-0.16461807 -0.059809137 0.014338075 0.06522712 -0.078585036 -0.16014037 0.039389428 -0.06588115
-0.014286684 0.04340456 0.049760863 -0.091824986 -0.26337227 -0.09659477 0.2690955 0.11824678
0.06742713 -0.034277976 0.013830296 0.106838085 -0.16104978 -0.22122931 -0.104099624 0.0638836
-0.11181736 -0.03966203 -0.05600351 0.13437012 -0.079937205 0.034612652 -0.06373444 0.1259399
-0.029752446 -0.06976744 0.08106489 0.021805203 -0.050025076 0.16269688 -0.0022279932 0.023363018
0.16169813 -0.0039032095 -0.1259748 -0.2559156 0.104915254 0.059249125 -0.11134799 -0.06960524
-0.004205473 -0.14522468 -0.01835374 0.15254149 -0.1767208 -0.082447544 0.23044652 -0.045153864
0.0005330026 0.021511469 -0.09312976 0.10517613 -0.020879863 -0.22092417 0.054235563 -0.023042612
-0.05004342 -0.26891404 -0.16351473 -0.31553885 0.015047936 -0.08499949 -0.11594038 0.14302874
-0.011066578 -0.038847998 0.059314564 0.04852792 -0.04092515 -0.008474362 0.1189097 0.05465451
00000000: 56f1 963d 31bb 00bd 5c0c 14be 6f3b 0abc
00000010: 9954 8bbd 8d47 643d 7c58 473d 5418 2bbd
00000020: 5bca 2fbe dcb5 91bd 08cf 13be 58b3 ffbd
00000030: 6bcd 3bbe 55c8 ac3c cb3a 35be 0446 8dbe
00000040: 71eb ffbd 819e 50bc a848 5bbe d01f 24bd
00000050: e509 14be e891 1e3d b2c3 8c3e 48e9 b1bb
00000060: 25c9 bc3c 24ff 233e ff0e dd3d d2e2 efbd
00000070: ad7a bbbd beb2 2a3d 4158 a03d a129 d9bb
00000080: 1e15 d1bd ccab 3dbd c0c8 11be 3a31 11be
00000090: e457 f23b bfdc f1bc c1ed 1fbe 9d94 7ebc
000000a0: e718 153d f03a f13d 551f 82bc 5d20 86bd
000000b0: f9ec 8b3e 74d2 1cbd 7ae4 94be bf16 983d
000000c0: 2593 3fbe 7692 8d3d 4532 333e 4596 e03d
000000d0: 669d 68be 6156 283e 7259 be3e 34b3 a23d
000000e0: b3da f7bc 10d0 833b 097e d73c 2eeb 9ebc
000000f0: 2e27 8dbd f2ed 4ebe 903a d23d 85d7 413d
00000100: f48a a7bd f430 743d 5d5c 4c3d b895 cb3d
00000110: e5f7 933e ea84 b3bc eabe d1bd c601 05bc
00000120: a759 36bd c367 873d ac40 5b3c d3c2 05bc
00000130: f514 ebbd fa8d 893c 72d6 063c 0714 1e3d
00000140: 4550 12bd 6957 29bc 0e2d 02bd 03bf 273d
00000150: 115e 423d fe1d 243e 0787 9a3d 977f 223e
00000160: b060 d43d 74fb 0b3e 11b6 83bc 8c62 f23e
00000170: f51b 683e 39da 16be a948 c0bc b309 16bc
00000180: 310e d23d 0f67 1b3e 80db 45be a071 4ebd
00000190: facf aabb 1586 8abd 4873 a23d 48d4 babd
000001a0: dff5 8d3d 8724 1a3e 4920 fc3d 96cd d7bc
000001b0: 35c9 253e 28d4 31be e086 2cbd 3cf5 f6bc
000001c0: d459 283e 5cf8 bb3c abcd 35be bbb1 0ebd
000001d0: 075a 91bd 7d3e 56bd f280 cf3d 5538 1d3e
000001e0: 1001 da3d e4d0 353d 3ff4 a53d fea2 a4bd
000001f0: 5ffa f2bc a86e a83b bf4b c93d 81ab 39be
00000200: 39d4 b43d bb89 b63d ae74 b83d 66b4 38be
00000210: 2b73 48bc 15f9 41ba 044e c03d e1a8 72bd
00000220: 6f1e e83c 6892 f0bc 3504 2abd bf1b 51bd
00000230: ce92 3abe b8df 0dbe 3eb8 123e 0256 29bd
00000240: 8fd5 11bd 9ba2 d8bd 1858 e23d 1ea8 ad3d
00000250: 8fce 0ebe 105c 0f3d 96d0 b43d c655 6c3d
00000260: e753 7cbd ccd5 0ebe 83ff 0fbe 9827 32bc
00000270: 7e19 5b3d e9ee 093e 4ebd c6bd 2384 1ebe
00000280: dcc9 173d d8eb 6b3c 7725 93bc aedc dcbd
00000290: a0a0 2abe 1fee fcbc 2569 633d 75e8 c6be
000002a0: 9cf4 5cbe fd51 413d 2ffb a63d 0cff 84bd
000002b0: 795e 1cbe 692b 42bd fe2a 2cbd 895d 66bd
000002c0: a491 28be 6dfa 74bd 3fea 6a3c cc95 853d
000002d0: 31f1 a0bd d6fb 23be cf56 213d b2ec 86bd
000002e0: b212 6abc fbc8 313d 0cd2 4b3d bd0e bcbd
000002f0: bbd8 86be 7bd3 c5bd e3c6 893e 5e2b f23d
00000300: 3c17 8a3d 1067 0cbd 7798 623c edcd da3d
00000310: 3cea 24be f089 62be 2f32 d5bd 68d5 823d
00000320: 8000 e5bd a774 22bd f063 65bd 5298 093e
00000330: 1eb6 a3bd ffc5 0d3d 3487 82bd 64f6 003e
00000340: 67bb f3bc 3be2 8ebd 5905 a63d d3a0 b23c
00000350: 18e7 4cbd 039a 263e 8603 12bb cd63 bf3c
00000360: 3294 253e fdcc 7fbb 8aff 00be 5f07 83be
00000370: cfdd d63d 36af 723d 6a0a e4bd 318d 8ebd
00000380: 10ce 89bb c7b5 14be 955a 96bc d633 1c3e
00000390: 4cf6 34be 42da a8bd 2cfa 6b3e 42f3 38bd
000003a0: 33b9 0b3a d238 b03c d1ba bebd 9566 d73d
000003b0: 3f0c abbc f239 62be 1c26 5e3d dcc3 bcbc
000003c0: 54fa 4cbd 1aaf 89be 6870 27be 4f8e a1be
000003d0: 9e8b 763c 3614 aebd 2672 edbd 2076 123e
000003e0: 9850 35bc 141f 1fbd d4f3 723d 36c5 463d
000003f0: 21a1 27bd 0dd8 0abc ee86 f33d 68dd 5f3d

value.0.bias f4 [256]
-0.021584965 0.03200075 0.050572056 -0.004014885 -0.07115801 -0.015598208 -0.03951525 -0.044683464
0.052552965 -0.043419432 0.04540074 -0.043391366 -0.03716106 0.04148297 -0.048028316 0.027138641
-0.014801396 0.03491841 0.045922503 0.035396904 0.037896007 0.012074387 -0.04859172 -0.024407495
-0.019456752 0.03381436 -0.038051497 0.06559098 -0.045371797 -0.035795785 0.029254356 -0.040697783
0.078552775 -0.009991426 0.05110762 -0.052654 0.05967656 0.055792324 -0.035638753 -0.02914888
0.024923801 0.046211235 0.035292808 -0.04841188 0.043194942 -0.049738724 -0.035820592 0.043778062
0.04584666 -0.033717226 -0.051072743 0.040187087 0.063644834 0.02399551 -0.028857153 -0.0679624
0.022731705 -0.05584386 -0.03560356 -0.02472326 0.0465517 0.048602298 0.03340039 -0.05072342
0.030709118 -0.04795287 -0.02867979 0.017368445 0.07447859 -0.039091527 -0.044915766 0.021807302
0.056026004 0.04628033 -0.013201254 0.02887713 0.0469358 0.032178126 -0.034035984 -0.042006973
-0.047274027 0.054921854 -0.05302201 0.044347756 -0.022975175 -0.04393146 -0.04988405 -0.035847772
0.00011157198 0.020413926 0.009846299 0.03181358 0.060285073 -0.043141216 0.029177547 0.042387698
-0.04802361 -0.053580116 0.023989808 0.019819612 0.01762309 0.043028224 -0.03731776 0.029257087
0.03370436 -0.0072114104 0.044161372 -0.03628943 -0.032951176 -0.017889278 0.05495827 -0.036938865
-0.036484037 -0.057319254 -0.03138448 0.042006038 -0.064239696 -0.0061731427 0.02839859 -0.035872117
0.042533215 0.06380727 -0.04552215 0.03505752 0.04374165 0.03311186 0.025804982 -0.037958972
0.04625598 0.051303994 -0.034641545 0.037320163 0.040514078 -0.03606656 -0.033465143 0.026974073
0.003599246 0.0043546148 0.03706644 -0.060302086 -0.024058888 -0.03714635 0.05421322 0.03844193
-0.03570614 -0.03915843 0.05414254 -0.02389912 -0.04150109 0.042623397 0.033660933 0.038156345
0.043155704 0.038700353 -0.03238907 -0.014744539 0.06177871 -0.048562203 0.060267333 -0.02096511
-0.020308528 -0.03888086 -0.029844968 -0.037515327 -0.06649368 -0.04466345 -0.04495481 -0.022537222
-0.0045568226 -0.036186967 0.026049778 -0.033309296 0.0228071 -0.042648073 -0.02910227 -0.035832282
-0.02388795 -0.024349438 -0.03622205 0.0020157024 0.0322233 -0.03756001 -0.038172442 -0.048941597
-0.0342601 0.015389368 0.029299209 0.055142693 -0.03702332 0.056954753 -0.025760427 0.012392131
-0.027437322 -0.03528364 0.02528495 -0.032181807 -0.032535378 -0.045308176 -0.04809828 -0.018605309
0.04793288 -0.038767464 -0.070285045 0.040364627 -0.047143545 -0.060061857 -0.044925425 -0.03471078
-0.03802869 0.032473378 -0.04564772 0.05065009 -0.059969053 0.04337572 0.03077435 -0.042182554
0.030815786 0.0299376 0.017427493 0.0384924 0.026891373 -0.04157798 -0.03719407 -0.07574595
-0.036490113 0.027709564 0.02535492 0.04496424 -0.05291487 -0.031622708 -0.037871234 -0.04329272
-0.05259623 -0.052624803 -0.04820718 -0.033805385 -0.060711723 0.029750504 -0.050350107 0.005373111
-0.017565064 0.019725893 -0.031987693 -0.043363392 -0.026078017 0.056658443 0.056413613 0.037744578
-0.038360585 -0.05372912 0.04477428 0.054512735 -0.042640664 -0.050736908 -0.078493066 0.048218634
00000000: f4d2 b0bc 3813 033d a524 4f3d 4c8f 83bb
00000010: 4abb 91bd a08f 7fbc beda 21bd 0206 37bd
00000020: c741 573d 93d8 31bd 20f6 393d 25bb 31bd
00000030: 3236 18bd 0cea 293d 57b9 44bd db51 de3c
00000040: 8e81 72bc 9b06 0f3d 3c19 3c3d 58fc 103d
00000050: d838 1b3d a6d3 453c 1d08 47bd 3af2 c7bc
00000060: c463 9fbc ed80 0a3d e3db 1bbd 9054 863d
00000070: c7d7 39bd 9a9e 12bd d5a6 ef3c b8b2 26bd
00000080: 47e0 a03d 14b3 23bc 3956 513d b9ab 57bd
00000090: 696f 743d 7e86 643d f1f9 11bd a2c9 eebc
000000a0: 002d cc3c fe47 3d3d 318f 103d 894b 46bd
000000b0: 2eed 303d d5ba 4bbd 9db8 12bd a050 333d
000000c0: b5c9 3b3d 131b 0abd a731 51bd 379b 243d
000000d0: 3958 823d 3b92 c43c d665 ecbc df2f 8bbd
000000e0: d737 ba3c 88bc 64bd 0ad5 11bd 6f88 cabc
000000f0: ffac 3e3d 3413 473d d9ce 083d 5cc3 4fbd
00000100: b091 fb3c 3b6a 44bd e1f1 eabc 4548 8e3c
00000110: 3b88 983d 701e 20bd 98f9 37bd 3aa5 b23c
00000120: 867b 653d 7190 3d3d 134a 58bc bb8f ec3c
00000130: c13f 403d 36cd 033d 5169 0bbd 810f 2cbd
00000140: 69a2 41bd bdf5 603d 9b2d 59bd fea5 353d
00000150: 6f36 bcbc 79f1 33bd 3853 4cbd 1dd5 12bd
00000160: c0fb e938 1b3b a73c 5f52 213c f54e 023d
00000170: 7bed 763d d8b4 30bd c005 ef3c b99e 2d3d
00000180: 68b4 44bd d376 5bbd 4686 c43c bd5c a23c
00000190: 4c5e 903c 5d3e 303d 82da 18bd 8fac ef3c
000001a0: 950d 0a3d b24d ecbb 8ee2 343d 3aa4 14bd
000001b0: d0f7 06bd 898c 92bc ec1b 613d 354d 17bd
000001c0: 4970 15bd 98c7 6abd 038d 00bd 860e 2c3d
000001d0: 1a90 83bd 1348 cabb 29a4 e83c a4ee 12bd
000001e0: 4f37 2e3d 63ad 823d 6f75 3abd 7998 0f3d
000001f0: 722a 333d 4da0 073d f864 d33c de7a 1bbd
00000200: e976 3d3d 2324 523d 4be4 0dbd 07dd 183d
00000210: 17f2 253d 87ba 13bd bf12 09bd bbf8 dc3c
00000220: 54e1 6b3b 28b1 8e3b fbd2 173d 52ff 76bd
00000230: 2517 c5bc c526 18bd ae0e 5e3d 4975 1d3d
00000240: 9a40 12bd 9764 20bd 91c4 5d3d 16c8 c3bc
00000250: 0cfd 29bd df95 2e3d 0ce0 093d d449 1c3d
00000260: 09c4 303d 4384 1e3d 67aa 04bd 1493 71bc
00000270: ac0b 7d3d 29e9 46bd e1da 763d 06bf abbc
00000280: 125e a6bc 8941 1fbd 6f7d f4bc aca9 19bd
00000290: d72d 88bd 06f1 36bd 8922 38bd fb9f b8bc
000002a0: 6651 95bb c938 14bd 5866 d53c 546f 08bd
000002b0: f5d5 ba3c bfaf 2ebd e267 eebc dfc4 12bd
000002c0: aab0 c3bc 7978 c7bc 935d 14bd e019 043b
000002d0: 94fc 033d 86d8 19bd b55a 1cbd fc76 48bd
000002e0: 5254 0cbd b023 7c3c e504 f03c 4edd 613d
000002f0: c4a5 17bd 6349 693d 8807 d3bc 5d08 4b3c
00000300: 3cc4 e0bc 9485 10bd 6222 cf3c 12d1 03bd
00000310: d143 05bd 1195 39bd b402 45bd 296a 98bc
00000320: 4555 443d a2ca 1ebd 9bf1 8fbd 6155 253d
00000330: 9719 41bd 6c03 76bd b903 38bd e42c 0ebd
00000340: f9c3 1bbd ce02 053d 1bf9 3abd 7876 4f3d
00000350: 1ca2 75bd bdaa 313d 7d1a fc3c 9dc7 2cbd
00000360: 6371 fc3c b33f f53c 1ac4 8e3c 35aa 1d3d
00000370: 4c4b dc3c ac4d 2abd cf58 18bd b120 9bbd
00000380: a876 15bd 2bff e23c 1fb5 cf3c 6c2c 383d
00000390: 43bd 58bd d086 01bd de1e 1bbd b553 31bd
000003a0: 256f 57bd 1b8d 57bd e474 45bd 8477 0abd
000003b0: dbac 78bd 54b7 f33c ea3b 4ebd ec10 b03b
000003c0: 9ce4 8fbc 3298 a13c 8705 03bd d09d 31bd
000003d0: 91a1 d5bc af12 683d f611 673d 0f9a 1a3d
000003e0: fd1f 1dbd 1113 5cbd 3c65 373d bf48 5f3d
000003f0: faa7 2ebd 81d1 4fbd f9c0 a0bd e780 453d

value.2.weight f4 [256, 256]
-0.12577629 -0.048970282 0.1598535 -0.021487648 -0.25723287 -0.05177128 -0.05590929 -0.19920374
0.20574099 -0.13151641 -0.006704101 0.09572048 -0.066487804 0.24754265 -0.2439087 -0.04283175
0.15960924 -0.17180105 0.21287239 0.05406044 0.019564148 0.057415415 -0.015273674 -0.034467418
-0.26759169 0.0086286785 -0.009961875 -0.15512295 0.15851131 -0.00848744 -0.018831028 0.0909147
0.11312112 -0.17003237 0.101257466 -0.08239697 0.12119288 -0.025329392 -0.073284276 -0.263372
0.05502624 0.14540748 0.13518164 -0.2784604 0.18158661 -0.2921742 -0.22744007 0.09471763
0.1109426 -0.031288322 -0.16459937 0.17374775 -0.04651434 0.22145398 0.047250617 0.04185645
0.10795467 -0.29986763 -0.20175855 -0.0145974085 0.141652 -0.030362103 0.124856666 -0.03832547
0.2077895 -0.3112989 0.04357539 0.10858487 0.031061271 -0.27439812 -0.024632348 -0.1542424
0.12152721 0.2426743 -0.059076473 0.0758544 0.19247384 0.27145946 -0.01612898 0.030065095
-0.206908 -0.14706923 -0.045611486 0.06782331 -0.103356816 0.04675985 -0.09298684 0.06827171
-0.15961541 0.05565894 0.0526156 -0.1307708 0.20179468 -0.042994685 0.14438948 0.17417637
-0.18309063 -0.16386901 0.11111557 0.029188268 0.17909835 0.23438856 -0.12044404 0.20606032
0.008437623 -0.11203064 -0.038241502 -0.22002593 -0.21502115 0.07690085 0.097932786 -0.3144315
-0.16111414 -0.234117 -0.19442229 -0.024205498 -0.14586538 0.0013587204 0.17576115 -0.06967489
0.017040469 0.18981975 0.0074741165 -0.11673469 0.22074653 0.23820166 0.027667675 -0.0073129917
0.031392224 0.081156746 0.0008928937 0.45383006 0.18455918 0.03813698 -0.13576269 -0.057497945
0.07447598 0.10574451 0.048536483 -0.05623286 0.10189014 -0.11855892 0.086925976 0.26031402
-0.0459115 -0.19508766 0.035112187 0.038257323 -0.043846294 0.15736826 0.22749704 -0.016888058
0.028314203 0.10958397 -0.079639904 -0.08338395 0.17237554 -0.15612303 -0.081918925 -0.065204486
-0.060689162 0.0076416326 -0.035116583 -0.11317536 -0.09295913 -0.22301464 -0.07576099 -0.15239526
0.03784093 -0.15284966 0.36586258 -0.015680267 0.079999335 -0.07668484 -0.17548417 0.0649942
-0.0330202 -0.12779927 0.013482971 -0.17051806 0.14494365 0.02046959 -0.23932037 0.082536966
-0.0034164642 0.08556431 0.25003776 0.089611486 -0.14105062 0.10076957 -0.10199523 0.035978336
0.026022973 -0.008448004 0.29125932 -0.2266354 -0.21354438 0.100450106 -0.09841075 -0.040653624
0.12796366 -0.16045007 -0.05673644 0.14992382 -0.3298317 -0.061968464 -0.15669881 -0.20948078
-0.20295008 0.21467921 -0.28785703 -0.1215982 -0.06255153 0.12680736 0.087675765 -0.17384128
-0.023922399 0.2584945 -0.041474007 0.25006965 0.075047925 0.114806764 -0.2003661 -0.007821303
-0.0957566 0.042522278 0.1910282 0.040872555 -0.06834343 0.054684762 0.1154793 -0.16436364
-0.11855559 -0.02977977 -0.06215609 -0.30823433 0.014710185 0.09478338 -0.17986514 -0.073764324
-0.084041655 0.31411985 -0.14399698 0.02985016 -0.019846292 0.070789784 0.17932974 -0.08380233
-0.011617824 -0.13657336 0.022808883 0.008877897 -0.22173527 -0.046102118 -0.11339619 0.09931369
00000000: 80cb 00be 1095 48bd a3b0 233e dd06 b0bc
00000010: 07b4 83be 1f0e 54bd 2401 65bd 11fc 4bbe
00000020: c4ad 523e 3dac 06be 13ae dbbb 1909 c43d
00000030: c22a 88bd d27b 7d3e 34c3 79be 5870 2fbd
00000040: 9b70 233e 9dec 2fbe 38fb 593e 7b6e 5d3d
00000050: fe44 a03c 6d2c 6b3d 6f3e 7abc b52d 0dbd
00000060: c701 89be 4d5f 0d3c 2237 23bc 8dd8 1ebe
00000070: ca50 223e e70e 0bbc 8743 9abc 7c31 ba3d
00000080: 0cac e73d f71c 2ebe 1360 cf3d bebf a8bd
00000090: f933 f83d 967f cfbc 1116 96bd b2d8 86be
000000a0: 3263 613d b3e5 143e 0e6d 0a3e 5d92 8ebe
000000b0: d7f1 393e db97 95be 0de6 68be 51fb c13d
000000c0: e035 e33d 2f28 00bd bd8c 28be eeea 313e
000000d0: d285 3ebd d5c4 623e dd89 413d ab71 2b3d
000000e0: 5717 dd3d 4088 99be cb99 4ebe f829 6fbc
000000f0: 390d 113e f2b9 f8bc dab4 ff3d 2bfb 1cbd
00000100: c5c6 543e 9262 9fbe 1c7c 323d bf61 de3d
00000110: 3574 fe3c e97d 8cbe c7c9 c9bc b8f1 1dbe
00000120: 42e3 f83d 9d7f 783e 2cfa 71bd 8d59 9b3d
00000130: dd17 453e bcfc 8a3e ec20 84bc 134b f63c
00000140: b1df 53be 5199 16be 1cd3 3abd f3e6 8a3d
00000150: bdac d3bd 4287 3f3d e26f bebd 0ad2 8b3d
00000160: 3972 23be a1fa 633d 7583 573d c8e8 05be
00000170: 44a3 4e3e 321b 30bd d6da 133e 4a5b 323e
00000180: 1c7c 3bbe 47cd 27be 8f90 e33d 3c1c ef3c
00000190: 8f65 373e 8e03 703e 5dab f6bd 7a01 533e
000001a0: f53d 0a3c 5270 e5bd 1fa3 1cbd 7a4e 61be
000001b0: 812e 5cbe 317e 9d3d fc90 c83d 2afd a0be
000001c0: 1bfb 24be 5ebc 6fbe a316 47be 9c4a c6bc
000001d0: bc5d 15be 1717 b23a bbfa 333e b5b1 8ebd
000001e0: 7498 8b3c 1c60 423e 6fe9 f43b 9912 efbd
000001f0: 610b 623e 23eb 733e 52a7 e23c d2a1 efbb
00000200: 2295 003d 8235 a63d 1511 6a3a 6a5c e83e
00000210: 15fd 3c3e 8635 1c3d 6005 0bbe f782 6bbd
00000220: dd86 983d 9490 d83d 31ce 463d 6d54 66bd
00000230: c7ab d03d 05cf f2bd 3f06 b23d e147 853e
00000240: b20d 3cbd 0fc5 47be ccd1 0f3d b6b3 1c3d
00000250: 2c98 33bd 2525 213e fcf4 683e d358 8abc
00000260: 30f3 e73c 8f6d e03d 3f1a a3bd 34c5 aabd
00000270: 3783 303e b7de 1fbe 1cc5 a7bd ee89 85bd
00000280: 3395 78bd a966 fa3b 68d6 0fbd 7cc8 e7bd
00000290: 5b61 bebd f35d 64be 9428 9bbd 810d 1cbe
000002a0: 17ff 1a3d 9f84 1cbe 5752 bb3e e773 80bc
000002b0: b1d6 a33d f10c 9dbd 1fb2 33be ae1b 853d
000002c0: 3040 07bd d0dd 02be aee7 5c3c 499c 2ebe
000002d0: 1c6c 143e d7af a73c 6610 75be 2409 a93d
000002e0: c2e6 5fbb 573c af3d f304 803e 3a86 b73d
000002f0: 936f 10be 4760 ce3d e0e2 d0bd 055e 133d
00000300: 212e d53c 7f69 0abc f11f 953e 1c13 68be
00000310: 61ab 5abe c9b8 cd3d 938b c9bd 6a84 26bd
00000320: e808 033e 064d 24be 7864 68bd a185 193e
00000330: b3df a8be a5d2 7dbd a775 20be 2182 56be
00000340: 25d2 4fbe ded4 5b3e ff61 93be 7a08 f9bd
00000350: 041b 80bd cad9 013e 5a8f b33d 7303 32be
00000360: e8f8 c3bc 6459 843e a6e0 29bd 2109 803e
00000370: bab2 993d cf1f eb3d c52c 4dbe ec24 00bc
00000380: 091c c4bd d72b 2e3d e59c 433e fb69 273d
00000390: a4f7 8bbd 21fd 5f3d 6980 ec3d f14e 28be
000003a0: 46cd f2bd b4f4 f3bc 6297 7ebd e4d0 9dbe
000003b0: fd02 713c ca1d c23d 912e 38be c011 97bd
000003c0: 081e acbd 51d4 a03e f273 13be 5388 f43c
000003d0: b194 a2bc 3cfa 903d 37a2 373e 8ea0 abbd
000003e0: b058 3ebc e3d9 0bbe b2d9 ba3c 9974 113c
000003f0: 920e 63be 93d5 3cbd 433c e8bd fa64 cb3d

value.2.bias f4 [256]
0.05093977 -0.021636836 -0.018440764 0.005742804 -0.027804581 -0.048250888 -0.018728886 0.060084634
0.033733968 0.022122866 0.053003643 0.046800043 0.020039503 -0.03593973 0.04563357 -0.023801988
0.0527573 -0.04236306 0.032779053 0.029666105 0.03241328 -0.009308887 0.051725686 0.04180799
-0.021859536 -0.057753414 -0.009577889 0.039844647 0.03835327 0.029762393 0.031355772 0.038228557
-0.028101362 -0.04299546 -0.032634795 0.024472851 0.02408369 -0.030787392 -0.022873854 0.009153858
0.03613405 0.05393203 0.040194668 0.02292726 0.019354483 -0.031415183 -0.011423653 -0.02187631
0.039761573 0.007597224 -0.011682345 0.050141405 0.048589125 -0.048522502 -0.020838873 0.017037624
0.015620581 -0.014341201 0.03437898 -0.027505519 0.04077698 -0.04001914 0.03847212 0.02322
-0.043125656 0.02842537 -0.02876097 0.023380456 -0.037437655 0.036179375 -0.04372389 0.022066154
0.032984708 0.016374819 -0.0033607741 -0.04391028 -0.007675063 0.020851783 0.04020526 -0.019949652
-0.04775623 0.0552542 -0.02506529 -0.0032756648 0.027341198 -0.024882557 0.062867105 0.03248305
0.03046818 -0.04190705 -0.013668345 0.015283681 -0.01777386 0.019823646 0.03152497 0.04008387
-0.030462177 0.03314194 -0.021460943 -0.04633444 -0.01809646 0.019681973 -0.03516176 0.044897303
0.025265206 0.032134153 -0.037351213 0.025738688 0.024640666 -0.017776644 -0.04101475 -0.046855435
0.027313005 -0.01160036 0.023475407 -0.0397212 0.044216562 0.02789668 -0.025206063 0.0314909
-0.044018134 -0.008603401 0.044564776 -0.0016936332 0.005843864 -0.01637599 0.03849939 -0.03486623
-0.0162848 0.044248246 0.054557208 -0.023021344 0.055986747 -0.028212983 -0.020552048 -0.048198145
-0.031831488 -0.0067258496 -0.040311474 -0.034166582 0.025081825 0.037475664 -0.034031168 0.019208174
0.004840716 0.019023445 0.004826006 0.053464606 -0.011638931 -0.024210887 -0.044564877 0.042250954
0.028293379 0.007543455 0.042653274 -0.033966396 -0.060868297 -0.053554818 -0.04619119 0.028554244
0.031075178 -0.016179595 -0.00586667 -0.022980774 -0.014279701 0.02190478 -0.033571266 0.035352696
-0.008260057 -0.0274878 0.03437744 -0.03895106 0.03511593 -0.016949696 0.01433385 -0.035311688
-0.019161452 0.040852726 -0.03813062 -0.018025832 0.02317396 0.038809408 0.028914493 -0.00025707114
-0.016131612 0.009452509 -0.040597852 0.0025316728 0.0024893999 0.04194821 -0.02294116 0.023273107
-0.014578565 -0.01161541 0.056211445 -0.012765015 -0.030321933 0.039380178 -0.016069379 -0.021951199
-0.008180218 0.028602974 -0.03150101 -0.04248957 -0.03419502 -0.016342456 -0.042949166 0.020427782
-0.03734656 0.057293244 -0.012776708 0.018690594 0.03650663 0.03394103 -0.039938975 -0.012085177
-0.017671894 0.029324379 -0.0232653 -0.03259364 0.044938084 0.016652294 -0.015984552 0.0073740724
0.03801222 -0.03961594 0.016615659 0.035824668 0.047652505 -0.027492246 0.029967615 -0.01197267
0.04465234 -0.020368595 -0.031931672 0.03035314 -0.027470788 -0.01747854 -0.03642331 0.013772752
-0.048935298 -0.019504555 0.0197773 -0.047829863 -0.034811642 0.02293938 -0.024058709 -0.026847512
0.034243073 0.010338711 0.014772929 -0.023170203 -0.045215428 -0.018452164 0.028294962 0.00925967
00000000: 38a6 503d bc3f b1bc 1611 97bc 222e bc3b
00000010: 6fc6 e3bc b9a2 45bd 526d 99bc 4e1b 763d
00000020: a12c 0a3d 033b b53c 591a 593d 67b1 3f3d
00000030: e229 a43c 8a35 13bd 44ea 3a3d 63fc c2bc
00000040: 0a18 583d e384 2dbd 5443 063d 5506 f33c
00000050: cac3 043d 4d84 18bc 50de 533d db3e 2b3d
00000060: c512 b3bc d88e 6cbd 94ec 1cbc 2434 233d
00000070: 5218 1d3d 43d0 f33c e96e 003d 8c95 1c3d
00000080: d434 e6bc 021c 30bd 10ac 05bd 4a7b c83c
00000090: 294b c53c d735 fcbc f361 bbbc 10fa 153c
000000a0: 4c01 143d d5e7 5c3d 2aa3 243d f3d1 bb3c
000000b0: 4b8d 9e3c 35ad 00bd 462a 3bbc f335 b3bc
000000c0: 08dd 223d 22f2 f83b 4e67 3fbc 1361 4d3d
000000d0: 6405 473d 88bf 46bd 49b6 aabc 7d92 8b3c
000000e0: 77ed 7f3c 5bf7 6abc f9d0 0c3d 4153 e1bc
000000f0: c305 273d 1ceb 23bd f194 1d3d df37 be3c
00000100: 87a4 30bd 52dc e83c 209c ebbc 5f88 bf3c
00000110: 3a58 19bd d330 143d d217 33bd 14c4 b43c
00000120: f91a 073d 7c24 863c 6f40 5cbb 44db 33bd
00000130: 187f fbbb 5cd1 aa3c 45ae 243d 746d a3bc
00000140: 099c 43bd 3a52 623d b955 cdbc 89ac 56bb
00000150: a6fa df3c 81d6 cbbc 78c0 803d f20c 053d
00000160: 6898 f93c baa6 2bbd 32f1 5fbc 6868 7a3c
00000170: 7c9a 91bc 3365 a23c 5420 013d fc2e 243d
00000180: d18b f9bc d8bf 073d dcce afbc 2fc9 3dbd
00000190: 073f 94bc 173c a13c c705 10bd 3ce6 373d
000001a0: faf8 ce3c 1a9f 033d 96fd 18bd f1d9 d23c
000001b0: 39db c93c 53a0 91bc 15ff 27bd 7ceb 3fbd
000001c0: 86bf df3c 700f 3ebc 7f4f c03c b2b2 22bd
000001d0: 6d1c 353d 9487 e43c f27c cebc 9afc 003d
000001e0: 5c4c 34bd 47f5 0cbc 8e89 363d e6fc ddba
000001f0: e27d bf3b f126 86bc 89b1 1d3d e4cf 0ebd
00000200: b367 85bc a63d 353d 6177 5f3d 4297 bcbc
00000210: 5c52 653d ea1e e7bc c55c a8bc 6b6b 45bd
00000220: bc61 02bd 8464 dcbb a51d 25bd 42f2 0bbd
00000230: 6678 cd3c 1580 193d 4464 0bbd 765a 9d3c
00000240: de9e 9e3b 0ed7 9b3c 7923 9e3b b4fd 5a3d
00000250: 37b1 3ebc e955 c6bc a989 36bd 560f 2d3d
00000260: 84c7 e73c 162f f73b 33b5 2e3d 5920 0bbd
00000270: 0951 79bd 4c5c 5bbd f932 3dbd 97ea e93c
00000280: 5f91 fe3c 128b 84bc 323d c0bb 2d42 bcbc
00000290: 68f5 69bc a771 b33c 0682 09bd fdcd 103d
000002a0: 3155 07bc 182e e1bc 5ccf 0c3d 268b 1fbd
000002b0: b9d5 0f3d 17da 8abc 86d8 6a3c fda2 10bd
000002c0: 7af8 9cbc 3055 273d da2e 1cbd e9aa 93bc
000002d0: 51d7 bd3c 9df6 1e3d 16de ec3c 81c7 86b9
000002e0: 7126 84bc b2de 1a3c ef49 26bd 6cea 253b
000002f0: 3325 233b e3d1 2b3d 19ef bbbc 3ea7 be3c
00000300: efda 6ebc 904e 3ebc f93d 663d 5a24 51bc
00000310: b465 f8bc 1c4d 213d eea3 83bc 00d3 b3bc
00000320: 5206 06bc c950 ea3c 3407 01bd 8b09 2ebd
00000330: 1410 0cbd 9de0 85bc 77eb 2fbd 2a58 a73c
00000340: b5f8 18bd 52ac 6a3d 6655 51bc 041d 993c
00000350: fa87 153d c005 0b3d 0d97 23bd e800 46bc
00000360: a6c4 90bc ae39 f03c df96 bebc e980 05bd
00000370: ff10 383d 646a 883c 09f2 82bc 34a2 f13b
00000380: b4b2 1b3d 5344 22bd 901d 883c e3bc 123d
00000390: 462f 433d 6b37 e1bc a57e f53c 0529 44bc
000003a0: 5fe5 363d 0adc a6bc c9ca 02bd 26a7 f83c
000003b0: 6b0a e1bc 282f 8fbc 9c30 15bd 1ca7 613c
000003c0: 6170 48bd 04c8 9fbc 0104 a23c 3fe9 43bd
000003d0: a796 0ebd 5eeb bb3c c516 c5bc 50ef dbbc
000003e0: 7742 0c3d b263 293c 280a 723c 70cf bdbc
000003f0: d033 39bd fe28 97bc d6ca e73c dfb5 173c

value.4.weight f4 [1, 256]
0.43490443 -0.4338019 -0.43177217 0.43432188 -0.43798107 -0.42298368 -0.4299088 0.42891672
0.4355558 0.42413485 0.43091404 0.4277845 0.4363824 -0.4323653 0.42412928 -0.43226328
0.43793774 -0.42716828 0.4352943 0.43178827 0.42139196 -0.435102 0.4362124 0.42300898
-0.43198818 -0.4228903 -0.4216308 0.42747822 0.42894763 0.43426904 0.4356541 0.43129602
-0.4298528 -0.4302089 -0.43691066 0.43770206 0.42895177 -0.42247498 -0.43729767 0.43156224
0.43842945 0.4296713 0.4312623 0.43139973 0.43680727 -0.43340942 -0.43706334 -0.42829874
0.43373337 0.42308202 -0.43326062 0.42884952 0.42753863 -0.4425364 -0.42835033 0.43727848
0.43281484 -0.43303925 0.4297336 -0.43435135 0.42459077 -0.43073326 0.4324121 0.4198877
-0.4378735 0.42623714 -0.42688674 0.42583862 -0.4324482 0.4250841 -0.43802562 0.4303996
0.4366598 0.4367664 -0.43271762 -0.4340057 -0.42734542 0.43673053 0.42628726 -0.43343562
-0.42739072 0.43503097 -0.4309348 -0.43455532 0.43614492 -0.4259413 0.43567944 0.43426323
0.43512386 -0.42484084 -0.42923757 0.4340894 -0.43516436 0.43806955 0.43585208 0.43595594
-0.4361903 0.4378212 -0.43419215 -0.43396628 -0.4246243 0.43596494 -0.42941746 0.4350612
0.43349487 0.43662167 -0.43556583 0.4403924 0.4313103 -0.43252674 -0.43520945 -0.428761
0.4328946 -0.42869395 0.44005546 -0.4254118 0.42820847 0.4343036 -0.42812902 0.4355669
-0.42576247 -0.43487617 0.43314895 -0.42691028 -0.43345875 -0.43518442 0.4354751 -0.43287992
-0.43359417 0.43137243 0.43722916 -0.43289506 0.42488897 -0.4334479 -0.4324332 -0.43529728
-0.4366798 -0.4212972 -0.42362452 -0.43664473 0.4308448 0.439158 -0.428074 0.43297982
0.43535262 0.43607384 0.4329542 0.43316963 -0.43138546 -0.42608154 -0.43708986 0.42793554
0.4421272 0.4312656 0.43511885 -0.43421614 -0.444801 -0.42739338 -0.43735358 0.42618084
0.440815 -0.43419868 -0.43401158 -0.4264785 -0.43335426 0.43450296 -0.42729262 0.43529412
-0.43514052 -0.42821148 0.43229604 -0.43748796 0.42253315 -0.42690808 0.43359423 -0.42168534
-0.43622026 0.4328968 -0.4345457 -0.4292743 0.4301517 0.43491048 0.435604 0.436202
-0.43307254 0.4342405 -0.43268389 0.4324373 0.43080565 0.4402656 -0.43478417 0.4350063
-0.43834993 -0.43387455 0.44059893 -0.42345423 -0.4332289 0.4307259 -0.42838547 -0.43343693
0.4298662 0.4374343 -0.43530196 -0.43480653 -0.42870274 -0.4321079 -0.43283764 0.4268974
-0.42996803 0.43301722 -0.43344846 0.43338004 0.4380375 0.4287822 -0.42546296 -0.43157193
-0.43219942 0.43039405 -0.42858857 -0.42624885 0.433422 0.42616516 -0.42968774 0.43286255
0.43083736 -0.43485463 0.42614633 0.43698287 0.4348772 -0.4393671 0.42834377 -0.4344356
0.4322915 -0.43370897 -0.43260366 0.43717712 -0.42722547 -0.43780467 -0.43733737 0.43629223
-0.42963022 -0.42450964 0.43075085 -0.43896028 -0.43459994 0.42758802 -0.42787015 -0.42906684
0.4262775 0.41686374 0.43661866 -0.43273455 -0.4330021 -0.43890834 0.42950445 0.4340375
00000000: cbab de3e 481b debe 3e11 ddbe 705f de3e
00000010: 0e3f e0be 5191 d8be 021d dcbe f99a db3e
00000020: 2b01 df3e 3428 d93e c4a0 dc3e 9206 db3e
00000030: 846d df3e fc5e ddbe 7927 d93e 9d51 ddbe
00000040: 6039 e03e cdb5 dabe e5de de3e 5a13 dd3e
00000050: b0c0 d73e b0c5 debe 3b57 df3e a294 d83e
00000060: 8e2d ddbe 1485 d8be fedf d7be 6dde da3e
00000070: 069f db3e 8358 de3e 0e0e df3e d5d2 dc3e
00000080: ab15 dcbe 5744 dcbe c1b2 dfbe 7c1a e03e
00000090: 919f db3e a44e d8be 7be5 dfbe baf5 dc3e
000000a0: d379 e03e e0fd db3e 6ace dc3e 6de0 dc3e
000000b0: 34a5 df3e d7e7 ddbe c4c6 dfbe f949 dbbe
000000c0: 4d12 de3e 359e d83e 56d4 ddbe 2a92 db3e
000000d0: 58e6 da3e 2294 e2be bc50 dbbe f7e2 df3e
000000e0: e899 dd3e 52b7 ddbe 0b06 dc3e 4d63 debe
000000f0: f663 d93e 1289 dcbe 1e65 dd3e 85fb d63e
00000100: f530 e0be c13b da3e e690 dabe 8507 da3e
00000110: da69 ddbe a0a4 d93e e544 e0be 565d dc3e
00000120: e091 df3e d89f df3e 2a8d ddbe ff35 debe
00000130: 05cd dabe 259b df3e 5342 da3e 46eb ddbe
00000140: f5d2 dabe 61bc de3e 7ca3 dcbe 097e debe
00000150: 634e df3e fa14 dabe 6011 df3e c057 de3e
00000160: 8ec8 de3e bd84 d9be 07c5 dbbe f740 de3e
00000170: ddcd debe a74a e03e 0128 df3e 9e35 df3e
00000180: 5654 dfbe 1a2a e03e 6f4e debe d430 debe
00000190: 5b68 d9be cc36 df3e 9bdc dbbe 57c0 de3e
000001a0: 0af3 dd3e e08c df3e 7c02 dfbe 1d7b e13e
000001b0: b4d4 dc3e 2574 ddbe c6d3 debe 9086 dbbe
000001c0: 5ca4 dd3e c67d dbbe f34e e13e 93cf d9be
000001d0: 243e db3e 0b5d de3e ba33 dbbe a002 df3e
000001e0: 8afd d9be 17a8 debe b3c5 dd3e fc93 dabe
000001f0: 4eee ddbe 7ed0 debe 98f6 de3e 70a2 ddbe
00000200: 0e00 debe d9dc dc3e 80dc df3e 6ca4 ddbe
00000210: 0c8b d93e e2ec ddbe e267 ddbe 49df debe
00000220: 7f94 dfbe 44b4 d7be 50e5 d8be e68f dfbe
00000230: b197 dc3e 51d9 e03e 842c dbbe 88af dd3e
00000240: 8ae6 de3e 1245 df3e 2cac dd3e 69c8 dd3e
00000250: 8ede dcbe 5c27 dabe 3eca dfbe 5e1a db3e
00000260: 7f5e e23e d8ce dc3e e6c7 de3e 9451 debe
00000270: f5bc e3be 4ed3 dabe cfec dfbe 6034 da3e
00000280: 81b2 e13e 4a4f debe c436 debe 645b dabe
00000290: 9ce0 ddbe 2c77 de3e 19c6 dabe dfde de3e
000002a0: bdca debe 893e dbbe e855 dd3e 6cfe dfbe
000002b0: 4456 d83e b293 dabe 1000 de3e 24e7 d7be
000002c0: 4358 dfbe a6a4 dd3e c67c debe d7c9 dbbe
000002d0: d83c dc3e 96ac de3e 7d07 df3e de55 df3e
000002e0: afbb ddbe c554 de3e be88 ddbe 6c68 dd3e
000002f0: 8f92 dc3e 7e6a e13e 089c debe 25b9 de3e
00000300: 676f e0be ce24 debe 2f96 e13e fece d8be
00000310: 2ed0 ddbe 1b88 dc3e 5755 dbbe 72eb ddbe
00000320: 6c17 dc3e 63f7 df3e e6df debe f69e debe
00000330: ed7e dbbe 3f3d ddbe e59c ddbe 4c92 da3e
00000340: c524 dcbe 6fb4 dd3e f5ec ddbe fde3 dd3e
00000350: 7446 e03e 5789 db3e 48d6 d9be fff6 dcbe
00000360: 3e49 ddbe 9c5c dc3e f66f dbbe 4a3d dabe
00000370: 7de9 dd3e 5232 da3e 0800 dcbe 29a0 dd3e
00000380: b796 dc3e 44a5 debe da2f da3e 38bc df3e
00000390: 39a8 de3e b9f4 e0be e04f db3e 586e debe
000003a0: 5055 dd3e 1a0f debe 3a7e ddbe aed5 df3e
000003b0: 4cbd dabe ef27 e0be afea dfbe b261 df3e
000003c0: 7ef8 dbbe 5459 d9be 608b dc3e 67bf e0be
000003d0: e283 debe d1ec da3e cc11 dbbe a6ae dbbe
000003e0: 0b41 da3e 2a6f d53e 7b8c df3e 628f ddbe
000003f0: 74b2 ddbe 98b8 e0be 02e8 db3e 2a3a de3e
