run/2024-11-10/08-40-12/critic/value_func_iter_5.pth (torch, 306471 bytes, 5 tensors)

value.0.weight f4 [256, 38]
0.06987566 -0.03136739 -0.14647081 -0.00839167 -0.06780092 0.051963273 0.047298416 -0.043175153
-0.17244387 -0.07326822 -0.14273259 -0.12533163 -0.18252172 0.018762035 -0.17658244 -0.27593508
-0.12438975 -0.0150161255 -0.21189693 -0.041922487 -0.14344288 0.036373794 0.2721367 -0.00816702
0.023019228 0.15729335 0.10467859 -0.119580016 -0.09131396 0.039156612 0.07879733 -0.009495261
-0.10145662 -0.048484813 -0.13616318 -0.14397906 0.007425663 -0.031381164 -0.15248688 -0.01548728
0.038326073 0.1174138 -0.015842693 -0.062078178 0.27342674 -0.036869682 -0.28904033 0.07606553
-0.1874108 0.069667116 0.17420632 0.11128784 -0.226496 0.16458192 0.37046197 0.08122848
-0.031615753 0.0056661675 0.025494337 -0.017397443 -0.06716075 -0.19904755 0.10225038 0.049201895
-0.07906392 0.061755985 0.049729966 0.101177074 0.28741252 -0.01936315 -0.10233176 -0.0060866186
-0.0495955 0.06783063 0.01329434 -0.0066508623 -0.10991063 0.016750509 0.011230441 0.038454797
-0.03562657 -0.005786179 -0.030094313 0.04284067 0.048852377 0.16276167 0.07364832 0.1593545
0.10297275 0.13916148 -0.01596489 0.47299746 0.22571793 -0.14387743 -0.025597528 -0.006605833
0.101096325 0.154152 -0.1900281 -0.046780266 -0.00533534 -0.064415276 0.08287062 -0.08748328
0.0690559 0.15310358 0.121811315 -0.022498924 0.1610572 -0.1701778 -0.049435258 -0.026923968
0.16382273 0.025130782 -0.18675736 -0.034814015 -0.07640074 -0.05210823 0.101040706 0.14330083
0.103513405 0.040791802 0.078836024 -0.08579743 -0.027496496 0.0033030482 0.09851252 -0.1861029
0.08821723 0.08714737 0.09009496 -0.18538633 -0.008214776 -0.0057106554 0.096241124 -0.0645405
0.025084179 -0.03616073 -0.04113232 -0.056558374 -0.18686453 -0.14462136 0.14299853 -0.047000445
-0.034800697 -0.11065704 0.11050818 0.078984804 -0.119288765 0.03072535 0.08806875 0.053882312
-0.06592654 -0.13902266 -0.14325705 -0.010818311 0.05334778 0.12977274 -0.09820106 -0.15636861
0.035407264 0.011307475 -0.016494304 -0.10870162 -0.16567686 -0.03371938 0.055340514 -0.38844332
-0.21484853 0.044038925 0.08340188 -0.067297354 -0.15117669 -0.05015602 -0.044224918 -0.05955529
-0.16394387 -0.06267501 0.010511018 0.061590176 -0.07829189 -0.16273303 0.03998119 -0.06963081
-0.013883186 0.04027007 0.058449518 -0.09477419 -0.2624927 -0.09863424 0.27432457 0.11792987
0.070264004 -0.03418633 0.013776451 0.11257502 -0.15909085 -0.21864927 -0.102568306 0.066795714
-0.1125181 -0.038562745 -0.05613437 0.1369171 -0.07960736 0.035385806 -0.06367785 0.12861916
-0.031883154 -0.06695458 0.07989105 0.024691394 -0.048079275 0.16603503 -0.0023181192 0.02636921
0.16444445 -0.00033705053 -0.12560974 -0.25193402 0.10392252 0.06203018 -0.111214206 -0.06634088
-0.011644261 -0.14222394 -0.018324928 0.15426016 -0.180762 -0.08223319 0.22661225 -0.044985313
0.0005585568 0.016858788 -0.094484076 0.10272188 -0.022315273 -0.22332382 0.055541668 -0.024164375
-0.0494646 -0.27103642 -0.16295157 -0.31562984 0.015262711 -0.087784305 -0.11312052 0.1399717
-0.009837848 -0.04167995 0.056662787 0.044868577 -0.040618002 -0.011539477 0.11463802 0.050990645
00000000: f81a 8f3d 187b 00bd 72fc 15be 377d 09bc
00000010: 35db 8abd 71d7 543d fcbb 413d 6ed8 30bd
00000020: 2095 30be a60d 96bd 7e28 12be ef56 00be
00000030: f9e6 3abe d7b2 993c 07d2 34be 5d47 8dbe
00000040: 0ec0 febd 3206 76bc 82fb 58be eab6 2bbd
00000050: b1e2 12be b0fc 143d 8055 8b3e f7ce 05bc
00000060: d292 bc3c 8211 213e bb61 d63d 5ee6 f4bd
00000070: d002 bbbd af62 203d 7f60 a13d 0392 1bbc
00000080: 7dc8 cfbd 0398 46bd 5c6e 0bbe 3f6f 13be
00000090: fa52 f33b 8989 00bd 8525 1cbe 5cbe 7dbc
000000a0: cdfb 1c3d a576 f03d 89c8 81bc b045 7ebd
000000b0: 97fe 8b3e aa04 17bd 18fd 93be 3fc8 9b3d
000000c0: 9ee8 3fbe a2ad 8e3d 2463 323e e1ea e33d
000000d0: 91ee 67be 2a88 283e 31ad bd3e 1e5b a63d
000000e0: 857f 01bd 42ab b93b 80d9 d03c 1585 8ebc
000000f0: 938b 89bd 1fd3 4bbe a668 d13d ed87 493d
00000100: 44ec a1bd d8f3 7c3d a6b1 4b3d ed35 cf3d
00000110: bc27 933e 789f 9ebc 5093 d1bd 4272 c7bb
00000120: a724 4bbd c9ea 8a3d 81d0 593c 7aef d9bb
00000130: d318 e1bd 5d38 893c e2ff 373c c782 1d3d
00000140: 2bed 11bd fd99 bdbb 5988 f6bc b379 2f3d
00000150: 6e19 483d ffaa 263e eed4 963d d32d 233e
00000160: 61e3 d23d 5980 0e3e cdc8 82bc b92c f23e
00000170: 9a22 673e 9b54 13be e8b1 d1bc be75 d8bb
00000180: 970b cf3d 06da 1d3e ba96 42be aa9c 3fbd
00000190: 13d4 aebb 28ec 83bd 12b8 a93d 6f2a b3bd
000001a0: 2e6d 8d3d 2fc7 1c3e 3678 f93d aa4f b8bc
000001b0: 2eec 243e 1743 2ebe a07c 4abd a78f dcbc
000001c0: 25c1 273e 12df cd3c 523d 3fbe 2499 0ebd
000001d0: fe77 9cbd 706f 55bd 6eee ce3d 74bd 123e
000001e0: d6fe d33d 4e15 273d c874 a13d 90b6 afbd
000001f0: 5540 e1bc f477 583b efc0 c93d c291 3ebe
00000200: 3cab b43d 527a b23d b583 b83d ead5 3dbe
00000210: 4597 06bc 7320 bbbb 111a c53d cf2d 84bd
00000220: 567d cd3c 461d 14bd 5d7a 28bd c1a9 67bd
00000230: 6a59 3fbe 9f17 14be 356e 123e 8a83 40bd
00000240: 2d8b 0ebd 28a0 e2bd 1d52 e23d c9c2 a13d
00000250: ab4d f4bd bbb3 fb3c 645d b43d b3b3 5c3d
00000260: 7e04 87bd f55b 0ebe fab1 12be 493f 31bc
00000270: 3483 5a3d 25e3 043e a31d c9bd 181f 20be
00000280: 3507 113d fd42 393c 101f 87bc f49e debd
00000290: 32a7 29be 551d 0abd bcac 623d 0be2 c6be
000002a0: 4101 5cbe 2962 343d 9bce aa3d 32d3 89bd
000002b0: 10ce 1abe 6670 4dbd 3025 35bd 3ff0 73bd
000002c0: e7e0 27be c15b 80bd 6836 2c3c fb45 7c3d
000002d0: 8057 a0bd 7da3 26be 51c3 233d 999a 8ebd
000002e0: 4d76 63bc 3bf2 243d c368 6f3d f818 c2bd
000002f0: 7165 86be c000 cabd 4574 8c3e 3785 f13d
00000300: 93e6 8f3d f706 0cbd a0b6 613c bb8d e63d
00000310: b6e8 22be 98e5 5fbe 550f d2bd 31cc 883d
00000320: e46f e6bd f8f3 1dbd 27ed 65bd ff33 0c3e
00000330: 2f09 a3bd b5f0 103d 8869 82bd beb4 033e
00000340: e997 02bd 7c1f 89bd eb9d a33d 9b45 ca3c
00000350: c6ee 44bd 1605 2a3e 96eb 17bb 3e04 d83c
00000360: 2064 283e 28b6 b0b9 d79f 00be 7ffd 80be
00000370: 55d5 d43d 5c13 7e3d 46c4 e3bd badd 87bd
00000380: 92c7 3ebc 27a3 11be 291e 96bc 60f6 1d3e
00000390: ac19 39be e069 a8bd 0b0d 683e 8542 38bd
000003a0: 1d6c 123a 711b 8a3c de80 c1bd d95f d23d
000003b0: 85ce b6bc 00af 64be a97f 633d 5ef4 c5bc
000003c0: 649b 4abd 49c5 8abe c7dc 26be 3c9a a1be
000003d0: 7310 7a3c 42c8 b3bd bbab e7bd be54 0f3e
000003e0: ed2e 21bc 98b8 2abd 3d17 683d 1dc8 373d
000003f0: 105f 26bd 1310 3dbc 57c7 ea3d 91db 503d

value.0.bias f4 [256]
-0.023858953 0.033925094 0.05340412 -0.009628999 -0.07397574 -0.012485435 -0.042453416 -0.047866844
0.055961102 -0.04678594 0.047861874 -0.04576334 -0.039231498 0.04433586 -0.05094769 0.029483294
-0.015330615 0.036797706 0.04886328 0.037435416 0.039983395 0.017059065 -0.0528375 -0.02862429
-0.022542564 0.035268847 -0.040670782 0.06835607 -0.047714587 -0.036452763 0.031099103 -0.0436185
0.08115112 -0.011303177 0.05287167 -0.05585351 0.06201458 0.05804398 -0.037869357 -0.032200254
0.027920319 0.048689704 0.037301518 -0.051531844 0.045355745 -0.05310608 -0.03909246 0.045847677
0.048164155 -0.03604942 -0.05417712 0.043686625 0.0673535 0.026818901 -0.03053017 -0.070791185
0.025709834 -0.05836909 -0.03865729 -0.026659902 0.04994867 0.050845705 0.035836402 -0.052523844
0.034128394 -0.051435698 -0.030595044 0.019486034 0.0781691 -0.04241394 -0.046191465 0.019760635
0.05982675 0.049226407 -0.013119212 0.031066157 0.049749605 0.035985902 -0.036978263 -0.044131655
-0.050396796 0.057137858 -0.05713738 0.047713354 -0.025481427 -0.046502016 -0.05468884 -0.03559335
0.003304863 0.023374517 0.010185967 0.03469781 0.06341708 -0.043982077 0.033238716 0.0448027
-0.050404172 -0.0571557 0.024770271 0.020980075 0.017489532 0.04594299 -0.03854351 0.032307733
0.036773663 -0.009541677 0.047026157 -0.039071217 -0.03574885 -0.019873079 0.057827268 -0.03995593
-0.039452974 -0.06064178 -0.03452428 0.04517888 -0.067287005 -0.00404793 0.030385848 -0.039085444
0.04530556 0.06733073 -0.047666326 0.03697741 0.04631794 0.03653353 0.027244061 -0.039506834
0.049596958 0.054468945 -0.03763938 0.039694935 0.04331321 -0.03834395 -0.03589293 0.037694488
0.0012248135 0.0068314015 0.039043613 -0.06344356 -0.026426475 -0.039733693 0.057640996 0.041363943
-0.039328046 -0.041654687 0.058110047 -0.02641137 -0.04339747 0.045251656 0.03592082 0.03898983
0.044954672 0.04035381 -0.03616777 -0.017878076 0.06514606 -0.051493086 0.065977015 -0.020792123
-0.021616092 -0.04114855 -0.03277132 -0.03940459 -0.07021928 -0.046124343 -0.047143757 -0.025610112
-0.004370139 -0.03885006 0.029038688 -0.036116194 0.024414567 -0.045920044 -0.03515173 -0.037980355
-0.032310974 -0.026785769 -0.037747532 0.00028901562 0.035905123 -0.04016473 -0.04132582 -0.050131865
-0.03631225 0.016919557 0.031870667 0.059425715 -0.039772335 0.058811188 -0.027315918 0.014920195
-0.029610509 -0.038018905 0.028059915 -0.035367943 -0.0351314 -0.04809736 -0.05030761 -0.020701822
0.05074074 -0.04071853 -0.073477976 0.040959857 -0.049883403 -0.062898144 -0.048019525 -0.03727894
-0.040388204 0.035324626 -0.04870062 0.05213668 -0.06254179 0.044641607 0.032671627 -0.04559228
0.033371907 0.031822316 0.019976685 0.040968653 0.028849576 -0.043335706 -0.0395937 -0.08018806
-0.038353365 0.030526802 0.028616987 0.045108072 -0.056797765 -0.03286804 -0.039148495 -0.04621157
-0.05425771 -0.055195466 -0.05114164 -0.039486833 -0.06404404 0.03290145 -0.053794567 0.0010273177
-0.019961983 0.02258491 -0.03457676 -0.046419017 -0.028562542 0.05955435 0.059300993 0.041227344
-0.043581497 -0.056689154 0.047724992 0.0572613 -0.044693686 -0.054616235 -0.08118921 0.051897995
00000000: da73 c3bc 0af5 0a3d 47be 5a3d f3c2 1dbc
00000010: 9880 97bd b68f 4cbc a2e3 2dbd 0610 44bd
00000020: 7837 653d 9da2 3fbd d00a 443d 5772 3bbd
00000030: 35b1 20bd 8599 353d 86ae 50bd f386 f13c
00000040: 432d 7bbc 31b9 163d dd24 483d e155 193d
00000050: a1c5 233d 74bf 8b3c 226c 58bd 7d7d eabc
00000060: 2fab b8bc 1176 103d 6896 26bd 44fe 8b3d
00000070: 5f70 43bd 7e4f 15bd 8cc3 fe3c 50a9 32bd
00000080: 8f32 a63d f630 39bc f78f 583d a6c6 64bd
00000090: 0003 7e3d 86bf 6d3d e61c 1bbd 6ae4 03bd
000000a0: 27b9 e43c db6e 473d 7ac9 183d 0e13 53bd
000000b0: f2c6 393d c385 59bd 6a1f 20bd c6ca 3b3d
000000c0: c747 453d 8ea8 13bd d4e8 5dbd bff0 323d
000000d0: a2f0 893d 50b3 db3c 681a fabc f8fa 90bd
000000e0: 6e9d d23c 6d14 6fbd 1b57 1ebd de65 dabc
000000f0: fa96 4c3d 9643 503d 31c9 123d 3e23 57bd
00000100: 37ca 0b3d 3dae 52bd 75a2 fabc 2da1 9f3c
00000110: 1f17 a03d 3dba 2dbd 4333 3dbd 0ee1 a13c
00000120: e50c 753d a1a1 493d f7f1 56bc 747e fe3c
00000130: 3ec6 4b3d f465 133d 8576 17bd 65c3 34bd
00000140: df6c 4ebd 6309 6a3d e308 6abd 146f 433d
00000150: 6dbe d0bc e678 3ebd 6801 60bd 55ca 11bd
00000160: 6796 583b ea7b bf3c 0be3 263c 4a1f 0e3d
00000170: d0e0 813d 8d26 34bd 5225 083d 0983 373d
00000180: 9b74 4ebd 181c 6abd 06eb ca3c 68de ab3c
00000190: 3546 8f3c b72e 3c3d cddf 1dbd 1d55 043d
000001a0: fb9f 163d b254 1cbc 809e 403d 2409 20bd
000001b0: 636d 12bd decc a2bc 49dc 6c3d d4a8 23bd
000001c0: 7199 21bd 8463 78bd 5569 0dbd 7d0d 393d
000001d0: c5cd 89bd 7fa4 84bb beeb f83c 0f18 20bd
000001e0: 5392 393d b2e4 893d c43d 43bd a075 173d
000001f0: e1b7 3d3d 2fa4 153d f02e df3c ebd1 21bd
00000200: 2e26 4b3d d41a 5f3d c02b 1abd 2897 223d
00000210: 3169 313d 8c0e 1dbd 7704 13bd 8965 1a3d
00000220: ec89 a03a f3d9 df3b 32ec 1f3d b2ee 81bd
00000230: 567c d8bc ccbf 22bd f718 6c3d 3d6d 293d
00000240: 7216 21bd 1b9e 2abd cd04 6e3d a85c d8bc
00000250: 8cc1 31bd cd59 393d b621 133d cdb3 1f3d
00000260: 6422 383d 094a 253d a824 14bd 0b75 92bc
00000270: 4c6b 853d 6aea 52bd f51e 873d 3e54 aabc
00000280: 3b14 b1bc 628b 28bd 383b 06bd b566 21bd
00000290: 20cf 8fbd e1ec 3cbd d019 41bd 4ccc d1bc
000002a0: 6233 8fbb 3e21 1fbd 8be2 ed3c 93ee 13bd
000002b0: 0f01 c83c a816 3cbd 43fb 0fbd 4a91 1bbd
000002c0: 8358 04bd d46d dbbc 289d 1abd 0587 9739
000002d0: 4011 133d c683 24bd 4345 29bd 1257 4dbd
000002e0: 27bc 14bd e29a 8a3c d18a 023d 6168 733d
000002f0: 51e8 22bd 00e4 703d a2c5 dfbc d573 743c
00000300: bd91 f2bc b6b9 1bbd e8dd e53c fadd 10bd
00000310: f1e5 0fbd bd01 45bd 5a0f 4ebd de96 a9bc
00000320: 86d5 4f3d 79c8 26bd 9f7b 96bd 86c5 273d
00000330: 8a52 4cbd bed0 80bd 1fb0 44bd cdb1 18bd
00000340: 1a6e 25bd 8eb0 103d 4d7a 47bd 458d 553d
00000350: e915 80bd 1eda 363d afd2 053d f8be 3abd
00000360: fbb0 083d 1e58 023d 25a6 a33c bfce 273d
00000370: f255 ec3c c880 31bd 012d 22bd a339 a4bd
00000380: 6b18 1dbd 5813 fa3c 2c6e ea3c 3ec3 383d
00000390: c6a4 68bd a3a0 06bd 2c5a 20bd 5848 3dbd
000003a0: 553d 5ebd a414 62bd e579 51bd f2bc 21bd
000003b0: 8629 83bd acc3 063d b157 5cbd 10a7 863a
000003c0: 5087 a3bc fd03 b93c 5ca0 0dbd de21 3ebd
000003d0: fefb e9bc 43ef 733d 99e5 723d 01de 283d
000003e0: 8382 32bd e332 68bd 487b 433d d38a 6a3d
000003f0: ba10 37bd 46b5 5fbd 8746 a6bd fe92 543d

value.2.weight f4 [256, 256]
-0.12363556 -0.04840772 0.16097601 -0.023482572 -0.26008838 -0.047720674 -0.06199266 -0.20031478
0.20789836 -0.13264884 -0.00328193 0.09252332 -0.06436144 0.24955809 -0.24559435 -0.044349555
0.15894806 -0.16854422 0.21875109 0.05250997 0.01963654 0.06282374 -0.020152127 -0.03697119
-0.26598445 0.0080757355 -0.008960795 -0.1510382 0.15765679 -0.008337796 -0.020787373 0.087114945
0.11638639 -0.16874686 0.099898316 -0.08559639 0.121119216 -0.024972051 -0.074177 -0.26230302
0.057491384 0.14678152 0.13578352 -0.2815645 0.17925267 -0.29813138 -0.22820234 0.09259314
0.11208311 -0.032622132 -0.1669867 0.17617881 -0.042921137 0.21956101 0.04648417 0.04171062
0.10727278 -0.30026194 -0.20317334 -0.016787332 0.14461595 -0.030670522 0.12654996 -0.034921255
0.2086465 -0.31565043 0.0470119 0.10517525 0.034516595 -0.27531332 -0.02185459 -0.1558644
0.12861149 0.24585526 -0.05906313 0.07693846 0.19580679 0.2731693 -0.020887591 0.029913705
-0.20963208 -0.14370473 -0.053204685 0.06817909 -0.10127878 0.04708988 -0.09461397 0.06946797
-0.15792045 0.057387058 0.05483006 -0.12652205 0.20488285 -0.041464593 0.14753377 0.17479943
-0.18496613 -0.16663651 0.10955525 0.027959859 0.1767849 0.23931031 -0.11949084 0.20519765
0.010291527 -0.10982195 -0.037551098 -0.21831767 -0.21328093 0.07892017 0.10001575 -0.3191874
-0.16497856 -0.23691863 -0.19616894 -0.017469695 -0.14912969 -0.00016522732 0.17778052 -0.07309945
0.018295113 0.19296561 0.009584433 -0.11663995 0.21849123 0.23824885 0.027371695 -0.0049869656
0.03462496 0.08383111 -0.003854583 0.4497661 0.18594564 0.039273154 -0.13630132 -0.053125598
0.07367124 0.10368048 0.050164316 -0.05941331 0.10344702 -0.11982014 0.089392155 0.26306266
-0.047077082 -0.1927801 0.03847895 0.03935924 -0.04371003 0.16073352 0.22708933 -0.01754566
0.025960447 0.110028766 -0.08236985 -0.08388479 0.17587158 -0.16008161 -0.076372325 -0.06541029
-0.060703713 0.0067316242 -0.0345198 -0.11054917 -0.09597865 -0.21991047 -0.07933325 -0.1551527
0.038483363 -0.15835728 0.36680892 -0.01447373 0.077124335 -0.079430334 -0.18045335 0.06175578
-0.036236767 -0.12547661 0.013244435 -0.1712191 0.14696701 0.016484654 -0.24122605 0.0829191
-0.003420787 0.08430656 0.25196928 0.09833156 -0.14249994 0.09978421 -0.09920132 0.03698047
0.028698469 -0.008116064 0.28883013 -0.22840425 -0.21570674 0.09710274 -0.09619852 -0.04326859
0.1275008 -0.15952827 -0.060032293 0.14745124 -0.33265996 -0.06700904 -0.1621106 -0.20771085
-0.20014784 0.21285133 -0.2921097 -0.12432366 -0.062362548 0.12504861 0.084687695 -0.18147242
-0.023079924 0.255805 -0.038721446 0.24881953 0.077767015 0.115076646 -0.19810204 -0.013242147
-0.095703185 0.041696873 0.19168024 0.039097615 -0.07218258 0.05506496 0.11681666 -0.16547917
-0.11806651 -0.028513866 -0.065866314 -0.31291735 0.011480359 0.0942921 -0.18612003 -0.07695015
-0.08095227 0.3160167 -0.14654562 0.023397569 -0.021050988 0.0735724 0.18162031 -0.07891552
-0.014097812 -0.14166632 0.02725821 0.012285782 -0.2189027 -0.051223457 -0.116340995 0.10290997
00000000: a434 fdbd 2c47 46bd e5d6 243e 865e c0bc
00000010: 4e2a 85be c176 43bd 04ec 7dbd 511f 4dbe
00000020: 4fe3 543e 19d5 07be a615 57bb de7c bd3d
00000030: eecf 83bd 288c 7f3e 167d 7bbe e1a7 35bd
00000040: 48c3 223e db96 2cbe 4900 603e b214 573d
00000050: cfdc a03c bca9 803d 1316 a5bc 1a6f 17bd
00000060: 1d2f 88be 1750 043c 4cd0 12bc c2a9 1abe
00000070: c870 213e 409b 08bc 484a aabc 5269 b23d
00000080: fd5b ee3d facb 2cbe 7d97 cc3d 294d afbd
00000090: 5a0d f83d 3092 ccbc 1cea 97bd 954c 86be
000000a0: 167c 6b3d e54d 163e d60a 0b3e 3929 90be
000000b0: 038e 373e ada4 98be e0ad 69be 79a1 bd3d
000000c0: d48b e53d c99e 05bd 90fe 2abe 3868 343e
000000d0: 13ce 2fbd 9ad4 603e 2f66 3e3d c1d8 2a3d
000000e0: d5b1 db3d efbb 99be ac0c 50be 9685 89bc
000000f0: 3416 143e bf40 fbbc 5096 013e 9709 0fbd
00000100: 6ea7 553e ef9c a1be 8d8f 403d 1f66 d73d
00000110: 4661 0d3d def5 8cbe 6608 b3bc eb9a 1fbe
00000120: bbb2 033e 7bc1 7b3e 2eec 71bd e991 9d3d
00000130: 9381 483e d9dc 8b3e 741c abbc 960d f53c
00000140: cba9 56be 5527 13be 28ed 59bd 7ba1 8b3d
00000150: 406b cfbd 51e1 403d f8c4 c1bd 3945 8e3d
00000160: e6b5 21be b10e 6b3d 7c95 603d ff8e 01be
00000170: cfcc 513e c7d6 29bd 1813 173e 9ffe 323e
00000180: c367 3dbe c3a2 2abe 815e e03d 130c e53c
00000190: 1a07 353e c30d 753e 9db7 f4bd 551f 523e
000001a0: cb9d 283c 55ea e0bd 2ecf 19bd ab8e 5fbe
000001b0: 5166 5abe e6a0 a13d 0fd5 cc3d 886c a3be
000001c0: 24f0 28be cc9a 72be 83e0 48be 9b1c 8fbc
000001d0: 74b5 18be df40 2db9 190c 363e 2ab5 95bd
000001e0: a2df 953c c798 453e 0708 1d3c ede0 eebd
000001f0: 2abc 5f3e 82f7 733e 9b3a e03c b369 a3bb
00000200: e7d2 0d3d a5af ab3d 2c9d 7cbb be47 e63e
00000210: 8968 3e3e e3dc 203d 9392 0bbe 3a9a 59bd
00000220: f2e0 963d 6e56 d43d 1979 4d3d 5f5b 73bd
00000230: 08dc d33d 4364 f5bd 3c13 b73d 26b0 863e
00000240: e6d3 40bd 2668 45be 1a9c 1d3d 2837 213d
00000250: 4a09 33bd 5497 243e 1b8a 683e eabb 8fbc
00000260: 01ab d43c c356 e13d 86b1 a8bd cacb abbd
00000270: ae17 343e 6fec 23be 1869 9cbd d5f5 85bd
00000280: 75a4 78bd f594 dc3b a264 0dbd 9a67 e2bd
00000290: 7490 c4bd 3630 61be 7979 a2bd 59e0 1ebe
000002a0: bba0 1d3d 6928 22be 61ce bb3e 3923 6dbc
000002b0: 5df3 9d3d 5fac a2bd c3c8 38be a1f3 7c3d
000002c0: 016d 14bd f17c 00be 30ff 583c 0f54 2fbe
000002d0: 857e 163e d30a 873c f603 77be 7dd1 a93d
000002e0: 482f 60bb eba8 ac3d 1e02 813e 0f62 c93d
000002f0: 81eb 11be aa5b cc3d 102a cbbd d578 173d
00000300: 0d19 eb3c 3df9 04bc 8be1 933e cee2 69be
00000310: 3ae2 5cbe cddd c63d bb03 c5bd 683a 31bd
00000320: 928f 023e 615b 23be 6ce4 75bd 75fd 163e
00000330: 6852 aabe 093c 89bd 5200 26be 27b2 54be
00000340: 8ef3 4cbe b3f5 593e 678f 95be 679d febd
00000350: df6f 7fbd be0c 003e be70 ad3d e8d3 39be
00000360: 1c12 bdbc dff8 823e 619a 1ebd 8cca 7e3e
00000370: 5044 9f3d 4ead eb3d 43db 4abe 97f5 58bc
00000380: 0800 c4bd 57ca 2a3d d347 443e d224 203d
00000390: 76d4 93bd cc8b 613d 933d ef3d 5f73 29be
000003a0: dbcc f1bd e995 e9bc ebe4 86bd b436 a0be
000003b0: 1e18 3c3c 371c c13d 4096 3ebe 0a98 9dbd
000003c0: 4eca a5bd f1cc a13e 0e10 16be 42ac bf3c
000003d0: 1f73 acbc 20ad 963d adfa 393e 769e a1bd
000003e0: 82fa 66bc fa10 11be 9c4c df3c 4e4a 493c
000003f0: 0828 60be b0cf 51bd 3044 eebd 76c2 d23d

value.2.bias f4 [256]
0.05290857 -0.025363343 -0.025619531 0.010341422 -0.029455187 -0.049516745 -0.021032203 0.062506385
0.035743974 0.027837448 0.0548341 0.049779966 0.02236525 -0.03796317 0.04708146 -0.02638103
0.053882368 -0.045829132 0.034777652 0.032390933 0.034570236 -0.012400476 0.053549133 0.043510213
-0.025169587 -0.05883746 -0.014604694 0.04150779 0.040810395 0.032794304 0.032772567 0.04120853
-0.03042697 -0.046001814 -0.03527107 0.02565808 0.029978786 -0.031945102 -0.025066651 0.014250699
0.040717 0.055850334 0.044274792 0.024573343 0.02120766 -0.032932747 -0.013481265 -0.024513867
0.041760158 0.01180684 -0.014742882 0.052603055 0.050807703 -0.050369084 -0.023700722 0.020665433
0.019501574 -0.017155403 0.036855932 -0.03065916 0.042086083 -0.04356052 0.040144604 0.02805952
-0.04465186 0.030527776 -0.029982217 0.026005032 -0.03909531 0.03960992 -0.045789212 0.023237947
0.035503197 0.019597486 -0.007090174 -0.046941087 -0.010515321 0.022510376 0.043634526 -0.022623219
-0.050077498 0.057244908 -0.027169064 -0.006451989 0.029671276 -0.02717812 0.065900475 0.035155658
0.031946044 -0.043778464 -0.016103562 0.017178675 -0.022010608 0.023285195 0.033986174 0.04211069
-0.031616513 0.036898736 -0.023486257 -0.047931347 -0.02124633 0.023062035 -0.037605844 0.046955075
0.027947422 0.03436258 -0.041803125 0.027972383 0.028775863 -0.02092036 -0.042142145 -0.049256947
0.030673912 -0.017159408 0.026588034 -0.041707262 0.046220273 0.032037202 -0.026923418 0.03489019
-0.04731467 -0.0122639565 0.048152108 -0.0046038297 0.0035098942 -0.018145988 0.039335087 -0.036538277
-0.020478005 0.046649024 0.055974644 -0.02464211 0.05844142 -0.030558262 -0.023576414 -0.04997799
-0.034589306 -0.0098739145 -0.04266415 -0.035210706 0.026704544 0.039932933 -0.036538504 0.020775452
0.009210797 0.020416768 0.007859545 0.055903535 -0.014539552 -0.02757992 -0.046519246 0.043974165
0.029974231 0.010553032 0.045799267 -0.036125038 -0.062746204 -0.05688719 -0.04804875 0.0305551
0.035943326 -0.01960108 -0.010246093 -0.02613565 -0.016243236 0.024314273 -0.03541246 0.037323087
-0.009775842 -0.03046672 0.038152825 -0.04117042 0.03673432 -0.020949803 0.016939642 -0.038045168
-0.020761564 0.042773996 -0.04080202 -0.019474585 0.0248515 0.041844737 0.0310544 0.00384448
-0.018671805 0.012983245 -0.04369987 0.004723475 0.006085173 0.043646205 -0.02418092 0.024243673
-0.017444981 -0.0147643285 0.057631064 -0.01502935 -0.03161343 0.04178308 -0.020824103 -0.024611194
-0.004643887 0.031434536 -0.03424831 -0.043584008 -0.036493912 -0.019495687 -0.04610829 0.023940096
-0.038131062 0.05967753 -0.017058363 0.019722622 0.03828458 0.036101688 -0.04232379 -0.013980922
-0.020968081 0.031194026 -0.024891483 -0.034354612 0.04652597 0.018399838 -0.019962445 0.010271821
0.041507974 -0.041265022 0.018054092 0.037733123 0.050057672 -0.030443462 0.032162856 -0.015000697
0.047807828 -0.022232646 -0.034814876 0.032320544 -0.030225862 -0.01913441 -0.040127758 0.016653901
-0.05276674 -0.02366392 0.021079872 -0.050731756 -0.03695881 0.025143774 -0.026834292 -0.028189026
0.035289697 0.012845248 0.01761965 -0.02553899 -0.04686076 -0.02090873 0.030660473 0.01277524
00000000: a8b6 583d c9c6 cfbc 0de0 d1bc 116f 293c
00000010: 014c f1bc 12d2 4abd ba4b acbc 5903 803d
00000020: 4668 123d 5c0b e43c b999 603d 14e6 4b3d
00000030: 5437 b73c 457f 1bbd 7dd8 403d 081d d8bc
00000040: c2b3 5c3d 54b7 3bbd 0373 0e3d 5bac 043d
00000050: 8599 0d3d 5e2b 4bbc 5656 5b3d c437 323d
00000060: 7330 cebc 8cff 70bd 8748 6fbc 1304 2a3d
00000070: cd28 273d 5253 063d 873c 063d 47ca 283d
00000080: fb41 f9bc 666c 3cbd 6678 10bd e530 d23c
00000090: 1296 f53c ded8 02bd 9458 cdbc c47b 693c
000000a0: dec6 263d 52c3 643d 7c59 353d 094e c93c
000000b0: b0bb ad3c 7de4 06bd 86e0 5cbc 4ed1 c8bc
000000c0: b30c 2b3d 7a71 413c 218c 71bc 4d76 573d
000000d0: bd1b 503d d04f 4ebd 0428 c2bc 8e4a a93c
000000e0: c4c1 9f3c 7d89 8cbc 3ff6 163d eb28 fbbc
000000f0: 7562 2c3d 846c 32bd ab6e 243d 14dd e53c
00000100: dee4 36bd 6315 fa3c 449d f5bc 8108 d53c
00000110: 6722 20bd 033e 223d 788d 3bbd 825d be3c
00000120: cd6b 113d e88a a03c b154 e8bb 4c45 40bd
00000130: 7448 2cbc ae67 b83c 1eba 323d 5454 b9bc
00000140: 101e 4dbd a379 6a3d a891 debc 356b d3bb
00000150: 2d11 f33c a6a4 debc d4f6 863d 61ff 0f3d
00000160: dbd9 023d 0c51 33bd 9eeb 83bc 4bba 8c3c
00000170: 974f b4bc 98c0 be3c 1635 0b3d 427c 2c3d
00000180: 5180 01bd 2123 173d 4066 c0bc a953 44bd
00000190: c90c aebc 98ec bc3c 9608 1abd f753 403d
000001a0: fef1 e43c c7bf 0c3d c139 2bbd 5726 e53c
000001b0: 5cbb eb3c 2d61 abbc 3e9d 2cbd a7c1 49bd
000001c0: db47 fb3c e391 8cbc 26cf d93c 3cd5 2abd
000001d0: 7851 3d3d 7139 033d 808e dcbc 04e9 0e3d
000001e0: 07cd 41bd c3ee 48bc 253b 453d b9db 96bb
000001f0: 4106 663b e5a6 94bc d41d 213d 29a9 15bd
00000200: 7dc1 a7bc 0c13 3f3d ab45 653d 40de c9bc
00000210: 4560 6f3d 5255 fabc 5323 c1bc b9b5 4cbd
00000220: 84ad 0dbd 33c6 21bc 9bc0 2ebd 1a39 10bd
00000230: 7dc3 da3c b790 233d 66a9 15bd 4831 aa3c
00000240: e2e8 163c 1141 a73c 52c5 003c 1bfb 643d
00000250: 4d37 6ebc 49ef e1bc f78a 3ebd 411e 343d
00000260: 858c f53c a0e6 2c3c 0398 3b3d d9f7 13bd
00000270: 1581 80bd 8b02 69bd c4ce 44bd b04e fa3c
00000280: 4f39 133d 7292 a0bc 3bdf 27bc 6e1a d6bc
00000290: 8910 85bc ba2e c73c a80c 11bd 18e0 183d
000002a0: da2a 20bc 5895 f9bc 2346 1c3d 50a2 28bd
000002b0: ba76 163d ec9e abbc 01c5 8a3c 40d5 1bbd
000002c0: 2814 aabc c933 2f3d 0520 27bd 2a89 9fbc
000002d0: 5f95 cb3c 6365 2b3d cc65 fe3c acf3 7b3b
000002e0: 9df5 98bc adb7 543c a3fe 32bd 61c7 9a3b
000002f0: 2266 c73b 5dc6 323d 1117 c6bc ab9a c63c
00000300: c7e8 8ebc 15e6 71bc 8d0e 6c3d aa3d 76bc
00000310: 157d 01bd bc24 2b3d 4f97 aabc 6a9d c9bc
00000320: bf2b 98bb 80c1 003d f547 0cbd 2585 32bd
00000330: a47a 15bd 6bb5 9fbc 0cdc 3cbd 051e c43c
00000340: 512f 1cbd 6d70 743d fbbd 8bbc 5691 a13c
00000350: 4bd0 1c3d 5ddf 133d b65b 2dbd 3d10 65bc
00000360: 41c5 abbc 9d8a ff3c 39e9 cbbc 6cb7 0cbd
00000370: 0492 3e3d 42bb 963c 4888 a3bc 244b 283c
00000380: 4404 2a3d 8305 29bd 2de6 933c 0c8e 1a3d
00000390: 4609 4d3d 9164 f9bc 33bd 033d 7cc5 75bc
000003a0: 24d2 433d 3d21 b6bc 0b9a 0ebd 8c62 043d
000003b0: 3a9c f7bc c4bf 9cbc 015d 24bd c36d 883c
000003c0: f021 58bd d6da c1bc b2af ac3c 1acc 4fbd
000003d0: 1f62 17bd 51fa cd3c 97d3 dbbc acec e6bc
000003e0: ee8b 103d e074 523c 1657 903c 2537 d1bc
000003f0: 11f1 3fbd c948 abbc ac2b fb3c 3d4f 513c

value.4.weight f4 [1, 256]
0.72433895 -0.72104394 -0.71766275 0.7218218 -0.72805834 -0.71103215 -0.71762604 0.71766156
0.7257328 0.7088549 0.7193922 0.7151601 0.7244547 -0.720179 0.7124368 -0.7195039
0.7293412 -0.7136442 0.7238138 0.7202951 0.7076031 -0.7218271 0.7270167 0.7102317
-0.7189176 -0.7099541 -0.7053979 0.7151666 0.71676487 0.723394 0.72523135 0.7186708
-0.7170347 -0.7188624 -0.7255338 0.7266634 0.71418345 -0.70797646 -0.7248373 0.71661055
0.727226 0.7173484 0.71838343 0.7187237 0.72602665 -0.72212774 -0.7263042 -0.71434915
0.7223875 0.7061797 -0.7203594 0.71625984 0.71539384 -0.7332753 -0.71458346 0.7267576
0.7186037 -0.72038645 0.7172355 -0.7235464 0.71171474 -0.71839947 0.71994525 0.704076
-0.7284694 0.7129663 -0.71390384 0.7134216 -0.72110975 0.71039873 -0.72783285 0.7179959
0.72531015 0.72444516 -0.7184457 -0.7225533 -0.7123301 0.7240174 0.71409297 -0.722215
-0.71546525 0.7260072 -0.7174721 -0.72166663 0.7240736 -0.7137878 0.72681296 0.72185946
0.7236253 -0.71229684 -0.71492183 0.7213969 -0.7223506 0.72653884 0.72302395 0.7255637
-0.7252454 0.7255457 -0.72233796 -0.72382104 -0.71048737 0.72458184 -0.7161509 0.72440434
0.7219104 0.7266778 -0.7230744 0.72963077 0.719077 -0.7193354 -0.72413987 -0.71683747
0.7209511 -0.713355 0.7300906 -0.71257585 0.7163812 0.7214628 -0.7145334 0.7236612
-0.7117928 -0.7214728 0.72235006 -0.71135116 -0.7196693 -0.72233844 0.7260633 -0.7218391
-0.7201234 0.7194899 0.7278382 -0.7204729 0.7123348 -0.7211913 -0.7191744 -0.72534996
-0.7244416 -0.70585257 -0.71070427 -0.7266892 0.7189918 0.7290537 -0.7153476 0.72019607
0.7229544 0.7243025 0.7197759 0.7231329 -0.71758795 -0.71199644 -0.72732335 0.71603155
0.73265207 0.7149963 0.7248597 -0.72339624 -0.7392688 -0.7152487 -0.7279266 0.7125318
0.729123 -0.72067773 -0.72051525 -0.7121877 -0.72090435 0.7230511 -0.7154848 0.7242557
-0.72214055 -0.7152209 0.7200821 -0.72616094 0.7086933 -0.7121906 0.72001815 -0.7064835
-0.7258254 0.721018 -0.7223902 -0.7163021 0.71765035 0.72431743 0.72541064 0.7230428
-0.7195649 0.72084725 -0.72099096 0.7175439 0.71725273 0.7301835 -0.7222371 0.7225979
-0.7257741 -0.722255 0.73290515 -0.70886314 -0.7211147 0.7192599 -0.71373886 -0.7222649
0.71390265 0.7265394 -0.7234845 -0.72351325 -0.7166675 -0.7185707 -0.7219527 0.7129248
-0.71868986 0.72246706 -0.71983963 0.7217795 0.7275866 0.7161271 -0.7136578 -0.7190475
-0.71876556 0.7174103 -0.7163193 -0.71321875 0.72221166 0.7140756 -0.7142366 0.7192224
0.7193616 -0.7244369 0.71217114 0.7252196 0.72370094 -0.72929627 0.71555746 -0.72154236
0.7206854 -0.720898 -0.7197232 0.7254054 -0.7141808 -0.725744 -0.725019 0.7232807
-0.71772313 -0.7117012 0.7191244 -0.72876364 -0.72307974 0.7143547 -0.713777 -0.71569425
0.7138436 0.69901985 0.7241715 -0.7194746 -0.7226059 -0.72709215 0.7161526 0.7219239
00000000: 476e 393f 5696 38bf bfb8 37bf 50c9 383f
00000010: 0862 3abf 3406 36bf 57b6 37bf abb8 373f
00000020: a0c9 393f 8477 353f 162a 383f bb14 373f
00000030: dd75 393f a75d 38bf 4262 363f 6831 38bf
00000040: 1bb6 3a3f 63b1 36bf dc4b 393f 4265 383f
00000050: 7a25 353f a9c9 38bf c41d 3a3f bfd1 353f
00000060: fc0a 38bf 8dbf 35bf f594 34bf 2915 373f
00000070: e77d 373f 5930 393f c3a8 393f cffa 373f
00000080: 968f 37bf 5e07 38bf 95bc 39bf 9d06 3a3f
00000090: bad4 363f f23d 35bf f08e 39bf ca73 373f
000000a0: 7c2b 3a3f 25a4 373f fae7 373f 47fe 373f
000000b0: e2dc 393f 5ddd 38bf 12ef 39bf 96df 36bf
000000c0: 63ee 383f 31c8 343f 7969 38bf ce5c 373f
000000d0: 0d24 373f eeb7 3bbf f1ee 36bf c90c 3a3f
000000e0: 69f6 373f 3f6b 38bf bf9c 373f 563a 39bf
000000f0: f032 363f 07e9 37bf 554e 383f 533e 343f
00000100: f87c 3abf f684 363f 67c2 36bf cca2 363f
00000110: a69a 38bf b1dc 353f 4153 3abf 94ce 373f
00000120: edad 393f 3d75 393f 0fec 37bf 41f9 38bf
00000130: 445b 36bf 3459 393f ccce 363f 15e3 38bf
00000140: bb28 37bf 9cdb 393f 40ac 37bf 25bf 38bf
00000150: e35c 393f ccba 36bf 6a10 3a3f c8cb 383f
00000160: 823f 393f 1659 36bf 1e05 37bf 78ad 383f
00000170: f8eb 38bf 73fe 393f 1918 393f 8bbe 393f
00000180: afa9 39bf 5dbd 393f 24eb 38bf 564c 39bf
00000190: 80e2 35bf 327e 393f aa55 37bf 9072 393f
000001a0: 1fcf 383f 8e07 3a3f 671b 39bf 15c9 3a3f
000001b0: 6e15 383f 5d26 38bf 3b61 39bf a982 37bf
000001c0: 4090 383f 6f9e 36bf 38e7 3a3f 5f6b 36bf
000001d0: c264 373f c9b1 383f a9eb 36bf dc41 393f
000001e0: 0e38 36bf 71b2 38bf efeb 383f 1c1b 36bf
000001f0: 3f3c 38bf 2ceb 38bf 49df 393f 72ca 38bf
00000200: 025a 38bf 7d30 383f 9b53 3a3f e970 38bf
00000210: 935b 363f fe9f 38bf d01b 38bf 89b0 39bf
00000220: 0175 39bf c1b2 34bf b7f0 35bf 4e08 3abf
00000230: d90f 383f 43a3 3a3f 0521 37bf c55e 383f
00000240: 8a13 393f e36b 393f 3c43 383f 3d1f 393f
00000250: d8b3 37bf 6645 36bf dd31 3abf d84d 373f
00000260: 168f 3b3f ff09 373f 6890 393f 7f30 39bf
00000270: b840 3dbf 8a1a 37bf 6659 3abf 7c68 363f
00000280: cea7 3a3f 567e 38bf b073 38bf ef51 36bf
00000290: 308d 38bf e019 393f 032a 37bf d268 393f
000002a0: 34de 38bf b818 37bf 4d57 383f afe5 39bf
000002b0: ed6c 353f 2052 36bf 1c53 383f 1adc 34bf
000002c0: b2cf 39bf a394 383f 90ee 38bf 935f 37bf
000002d0: efb7 373f de6c 393f 83b4 393f 5519 393f
000002e0: 6835 38bf 7289 383f dd92 38bf f5b0 373f
000002f0: e09d 373f 4eed 3a3f 88e4 38bf 2dfc 383f
00000300: 55cc 39bf b4e5 38bf ac9f 3b3f 0e78 35bf
00000310: f99a 38bf 6b21 383f 97b7 36bf 5ae6 38bf
00000320: 53c2 363f 7cfe 393f 4836 39bf 2a38 39bf
00000330: 8577 37bf 40f4 37bf e4d1 38bf 3d82 363f
00000340: 0ffc 37bf 9af3 383f 6947 38bf 8bc6 383f
00000350: 1e43 3a3f 1b54 373f 47b2 36bf 7f13 38bf
00000360: 0501 38bf 34a8 373f b460 37bf 8195 36bf
00000370: dde2 383f a9cd 363f 36d8 36bf f61e 383f
00000380: 1528 383f b274 39bf d950 363f fea7 393f
00000390: 7744 393f 29b3 3abf c62e 373f 00b7 38bf
000003a0: d77e 383f c58c 38bf c83f 38bf 2bb4 393f
000003b0: 8ed4 36bf 5cca 39bf d89a 39bf ed28 393f
000003c0: b4bc 37bf 0d32 36bf 8918 383f 4190 3abf
000003d0: c11b 39bf f3df 363f 17ba 36bf bd37 37bf
000003e0: 74be 363f f7f2 323f 4e63 393f 7d2f 38bf
000003f0: b3fc 38bf b622 3abf c755 373f 01d0 383f
