run/2024-11-10/08-40-12/critic/value_func_iter_1.pth (torch, 306471 bytes, 5 tensors)

value.0.weight f4 [256, 38]
0.075580604 -0.03173333 -0.1439204 -0.008443812 -0.06820901 0.057530485 0.04940195 -0.041107874
-0.17233764 -0.070314534 -0.14510454 -0.124788806 -0.18417698 0.022201316 -0.17768613 -0.27638274
-0.12554395 -0.0117558595 -0.21567723 -0.03934582 -0.14556034 0.03990384 0.27648383 -0.0043361476
0.02318195 0.16167152 0.109357536 -0.116576165 -0.092229664 0.042857695 0.07797003 -0.0052724695
-0.10247077 -0.045474224 -0.1435353 -0.14129551 0.007417265 -0.02863283 -0.15794107 -0.015448344
0.035701897 0.11813437 -0.015954975 -0.066953 0.2736933 -0.03897049 -0.29159546 0.07371341
-0.18746838 0.069012016 0.17567608 0.10922469 -0.22774826 0.16462305 0.3730673 0.078932375
-0.029717848 0.0034337982 0.026766848 -0.020251943 -0.06965998 -0.20354237 0.10290153 0.046712555
-0.08281838 0.05912808 0.05034673 0.09892902 0.29035884 -0.022996008 -0.10268781 -0.008863591
-0.044074375 0.06567293 0.013428205 -0.008903503 -0.11694819 0.01707074 0.00703014 0.03868962
-0.03586828 -0.012149813 -0.03256899 0.040207855 0.047770537 0.15960431 0.0760026 0.15867238
0.104252145 0.13596915 -0.015969722 0.47444668 0.22758898 -0.14889567 -0.02254399 -0.010099514
0.103516124 0.15103507 -0.19465312 -0.051773474 -0.0053197634 -0.06898812 0.07836262 -0.092520386
0.069990106 0.1498258 0.124242015 -0.027980123 0.16247351 -0.17526485 -0.04142233 -0.031291578
0.16490765 0.021933394 -0.1745883 -0.035274446 -0.06918245 -0.05242944 0.10168825 0.15743968
0.107851885 0.045826275 0.08107359 -0.078687906 -0.03019543 0.005842181 0.098298654 -0.17997392
0.08838713 0.09002798 0.090066336 -0.17906284 -0.013748395 0.0008332704 0.09305379 -0.057410516
0.029348457 -0.0272144 -0.04151058 -0.04929474 -0.18120813 -0.13721612 0.1432517 -0.039497536
-0.036651473 -0.10413842 0.11075763 0.086854994 -0.14161214 0.03653739 0.08857568 0.05965487
-0.059972253 -0.14016108 -0.13980259 -0.0108848065 0.0536927 0.13690443 -0.09673332 -0.15438822
0.037001736 0.015629666 -0.018307319 -0.10763779 -0.16738826 -0.029788876 0.055551622 -0.3892292
-0.2166697 0.048491705 0.0808243 -0.06420377 -0.15386057 -0.046342358 -0.041389354 -0.05519247
-0.16504689 -0.058832042 0.01559059 0.06645399 -0.079200745 -0.15944655 0.038878918 -0.06444275
-0.014405921 0.04463702 0.049113512 -0.0910311 -0.26419166 -0.09578579 0.26776373 0.118747465
0.06656705 -0.034397107 0.013847679 0.10504599 -0.16209954 -0.22261913 -0.10430361 0.06302412
-0.11193275 -0.0401719 -0.056018215 0.13374488 -0.0800763 0.03440215 -0.06378607 0.12531407
-0.029063255 -0.07083467 0.081771635 0.020801889 -0.050729513 0.1619834 -0.0023037659 0.022419108
0.16129738 -0.0048392597 -0.1261046 -0.25776455 0.10572378 0.058337152 -0.11165852 -0.07078983
-0.003367071 -0.14642772 -0.018400032 0.15206724 -0.17545308 -0.08291611 0.23237051 -0.04527154
0.00057059166 0.02335559 -0.092758805 0.106368534 -0.021094767 -0.22043814 0.05407904 -0.022604264
-0.050428245 -0.26857844 -0.16421527 -0.31607804 0.014868683 -0.08413221 -0.11729986 0.14443156
-0.011703176 -0.03777175 0.060293283 0.049909983 -0.04096219 -0.0073564025 0.12049199 0.055872265
00000000: 01ca 9a3d cffa 01bd df5f 13be ea57 0abc
00000010: 2ab1 8bbd 16a5 6b3d b359 4a3d bb60 28bd
00000020: 4779 30be 1101 90bd 4996 14be 4691 ffbd
00000030: e498 3cbe 89df b53c 5af3 35be 0a82 8dbe
00000040: 988e 00be a69b 40bc 7eda 5cbe 1529 21bd
00000050: c50d 15be 3572 233d 4a8f 8d3e 3e16 8ebb
00000060: 13e8 bd3c 388d 253e d8f6 df3d 7cbf eebd
00000070: e8e2 bcbd 8d8b 2f3d c0ae 9f3d aec4 acbb
00000080: 32dc d1bd 2e43 3abd ebfa 12be c5af 10be
00000090: 870c f33b 668f eabc 4ebb 21be 0d1b 7dbc
000000a0: 273c 123d 6ff0 f13d 02b4 82bc a81e 89bd
000000b0: 8721 8c3e 859f 1fbd 004c 95be 0ef7 963d
000000c0: b6f7 3fbe 2c56 8d3d 6ee4 333e 32b1 df3d
000000d0: d736 69be f292 283e ad02 bf3e 4ca7 a13d
000000e0: d872 f3bc 9309 613b 2646 db3c 67e7 a5bc
000000f0: e4a9 8ebd 696d 50be 0abe d23d aa55 3f3d
00000100: af9c a9bd 4930 723d 5f38 4e3d 4c9b ca3d
00000110: eaa9 943e 2062 bcbc fd4d d2bd 9838 11bc
00000120: 5587 34bd 877f 863d f901 5c3c 00e0 11bc
00000130: 8882 efbd f0d7 8b3c 175d e63b 0279 1e3d
00000140: 9eea 12bd 0210 47bc 1067 05bd feb0 243d
00000150: 0aab 433d 506f 233e 40a7 9b3d 037b 223e
00000160: 2682 d53d 7f3b 0b3e efd2 82bc adea f23e
00000170: 160d 693e 1b78 18be 2cae b8bc 6f78 25bc
00000180: 4300 d43d f0a8 1a3e 2653 47be 6c10 54bd
00000190: 6951 aebb a549 8dbd 957c a03d 547b bdbd
000001a0: f956 8f3d ef6b 193e 9972 fe3d 9236 e5bc
000001b0: 755f 263e a178 33be 76aa 29bd 992b 00bd
000001c0: 8ddd 283e a9ad b33c 46c7 32be f07b 10bd
000001d0: 87af 8dbd 41c0 56bd ee41 d03d de37 213e
000001e0: 73e1 dc3d 55b4 3b3d e909 a63d 2027 a1bd
000001f0: 685c f7bc c46f bf3b ce50 c93d 154b 38be
00000200: 5004 b53d 9760 b83d b374 b83d 405c 37be
00000210: f340 61bc d46f 5a3a fc92 be3d 4a27 6bbd
00000220: 2d6c f03c bcf0 debc ff06 2abd 48e9 49bd
00000230: a08e 39be 6282 0cbe 93b0 123e 2bc8 21bd
00000240: db1f 16bd 8646 d5bd e5d4 e23d 08e1 b13d
00000250: c602 11be 3ba8 153d 2b67 b53d aa58 743d
00000260: 77a5 75bd 6386 0fbe 6928 0fbe 3056 32bc
00000270: e0ec 5b3d ad30 0c3e 1e1c c6bd f217 1ebe
00000280: 228f 173d c909 803c 3bf9 95bc 3471 dcbd
00000290: d467 2bbe cd07 f4bc 198a 633d 0d49 c7be
000002a0: a9de 5dbe 3d9f 463d 3687 a53d 447d 83bd
000002b0: a08d 1dbe 7cd1 3dbd e287 29bd 8011 62bd
000002c0: 0d02 29be def9 70bd ad6f 7f3c 0819 883d
000002d0: 0034 a2bd f545 23be 803f 1f3d 8ffa 83bd
000002e0: d006 6cbc 4fd5 363d 402b 493d 836e babd
000002f0: 2144 87be 572b c4bd 5418 893e df31 f33d
00000300: 4e54 883d fbe3 0cbd 60e1 623c 5a22 d73d
00000310: 6cfd 25be 45f6 63be 229d d5bd ca12 813d
00000320: ff3c e5bd 4a8b 24bd 5b73 65bd 6bf4 083e
00000330: 0bff a3bd 45e9 0c3d 45a2 82bd 5552 003e
00000340: 1016 eebc c411 91bd e377 a73d b968 aa3c
00000350: c0c9 4fbd fade 253e c7fa 16bb 47a8 b73c
00000360: 242b 253e a792 9ebb 9021 01be b7f9 83be
00000370: b685 d83d f0f2 6e3d 39ad e4bd 42fa 90bd
00000380: 14aa 5cbb 26f1 15be aabb 96bc 84b7 1b3e
00000390: f9a9 33be eccf a9bd 89f2 6d3e a66e 39bd
000003a0: c293 153a 3954 bf3c 54f8 bdbd bfd7 d93d
000003b0: efce acbc 89ba 61be fc81 5d3d 942c b9bc
000003c0: d98d 4ebd 1d83 89be 0c28 28be fbd4 a1be
000003d0: c79b 733c 824d acbd e93a f0bd dee5 133e
000003e0: aebe 3fbc 8db6 1abd 17f6 763d 696e 4c3d
000003f0: f8c7 27bd fa0d f1bb 81c4 f63d 51da 643d

value.0.bias f4 [256]
-0.020624448 0.03134084 0.0495894 -0.0021195016 -0.07021271 -0.016665537 -0.03849508 -0.043608952
0.05135947 -0.04229499 0.0444704 -0.04260894 -0.036201105 0.040481832 -0.046967205 0.025994014
-0.014633088 0.034329582 0.044888098 0.034618173 0.037179854 0.01035979 -0.047292616 -0.022982113
-0.01823115 0.03327621 -0.03706879 0.06456047 -0.044603318 -0.035629164 0.028400162 -0.03971644
0.077641435 -0.009490305 0.050547644 -0.051609773 0.05894281 0.055055846 -0.034837496 -0.028078536
0.023811104 0.045370225 0.03457874 -0.047338292 0.04223567 -0.048583664 -0.034708135 0.042870544
0.045065947 -0.032855958 -0.04998376 0.039021812 0.06239915 0.02291388 -0.0282857 -0.06690565
0.021664312 -0.054986417 -0.03453182 -0.024050795 0.045342963 0.04789809 0.03255689 -0.05001511
0.029551102 -0.046723586 -0.027911274 0.016455615 0.07342128 -0.03797009 -0.04436136 0.02253649
0.0548699 0.04532178 -0.013277001 0.02809105 0.045900602 0.030891685 -0.03304433 -0.041281052
-0.046164226 0.054282725 -0.051651623 0.04316882 -0.022003768 -0.04305338 -0.048309486 -0.035999984
-0.0010121823 0.019336937 0.009835112 0.030803107 0.05924382 -0.042860407 0.027734693 0.04152978
-0.047211792 -0.052474502 0.023717934 0.019408466 0.017575804 0.042078998 -0.03688228 0.028187614
0.032621365 -0.0060495385 0.04318988 -0.035331972 -0.031943962 -0.016927734 0.0539598 -0.035830338
-0.035429254 -0.05625032 -0.030292388 0.040907424 -0.06307395 -0.007304737 0.027719699 -0.03469035
0.04159758 0.06258399 -0.044719353 0.03444902 0.042802215 0.03175546 0.02528534 -0.037197996
0.045154765 0.05022073 -0.033590112 0.03646425 0.0395181 -0.035075 -0.03268557 0.023631098
0.0045781545 0.003329471 0.036372893 -0.059266 -0.023078093 -0.03629314 0.05314831 0.03741691
-0.034444064 -0.03826403 0.05286347 -0.022762805 -0.040902875 0.04167222 0.032882616 0.037925843
0.04247131 0.038149912 -0.031012552 -0.013567427 0.060667053 -0.047538277 0.057900455 -0.021061197
-0.019862255 -0.03804164 -0.028505024 -0.036599692 -0.06540453 -0.04408095 -0.044002384 -0.021389782
-0.004633001 -0.035182457 0.024953322 -0.03225679 0.02200106 -0.041452456 -0.027104594 -0.035139006
-0.021203507 -0.023380755 -0.035721187 0.0025539359 0.030964708 -0.036683053 -0.03709924 -0.048594765
-0.03357396 0.014651776 0.028347204 0.053776454 -0.036049604 0.056360025 -0.025098821 0.011303443
-0.026483646 -0.034305293 0.024198709 -0.031069312 -0.03164356 -0.04433536 -0.04732709 -0.01780965
0.04698529 -0.03813332 -0.06928617 0.04015281 -0.046214193 -0.059176352 -0.04387928 -0.03370867
-0.03714149 0.031389993 -0.044558164 0.04998306 -0.059094124 0.042978592 0.030024875 -0.04103521
0.029879903 0.029086921 0.016500536 0.037610255 0.026186949 -0.040987913 -0.036292177 -0.07428093
-0.035845857 0.026641667 0.024220463 0.044918362 -0.0514796 -0.03119739 -0.037293192 -0.042267065
-0.05205133 -0.051652282 -0.047161095 -0.03190883 -0.059571393 0.028554954 -0.049144786 0.0068561267
-0.016499318 0.018697033 -0.0310509 -0.04233907 -0.025200227 0.05548992 0.055351928 0.03657388
-0.03668011 -0.05268336 0.043742713 0.053631123 -0.041660033 -0.049453646 -0.0775666 0.046918858
00000000: 9af4 a8bc 415f 003d 411e 4b3d 56e7 0abb
00000010: aecb 8fbd 2a86 88bc 04ad 1dbd 4d9f 32bd
00000020: 4f5e 523d 833d 2dbd 9826 363d b686 2ebd
00000030: 9c47 14bd 47d0 253d af60 40bd 66f1 d43c
00000040: 9fbf 6fbc 2d9d 0c3d 95dc 373d c9cb 0d3d
00000050: e749 183d 1cbc 293c e7b5 41bd fc44 bcbc
00000060: 7e59 95bc a34c 083d 72d5 17bd 4838 843d
00000070: f8b1 36bd e3ef 11bd 75a7 e83c b5ad 22bd
00000080: 7902 9f3d 397d 1bbc 0c0b 4f3d c564 53bd
00000090: 046e 713d 3d82 613d c3b1 0ebd f504 e6bc
000000a0: 810f c33c 21d6 393d 70a2 0d3d cce5 41bd
000000b0: 4fff 2c3d aaff 46bd 1e2a 0ebd 0699 2f3d
000000c0: 1297 383d f893 06bd c5bb 4cbd 56d5 1f3d
000000d0: 4096 7f3d e4b5 bb3c 6ab7 e7bc d405 89bd
000000e0: 5b79 b13c 7039 61bd 3d71 0dbd 2c06 c5bc
000000f0: 8bb9 393d ca30 443d 605a 053d a5dc 4cbd
00000100: 2715 f23c 3b61 3fbd 2fa6 e4bc edcd 863c
00000110: e55d 963d 8686 1bbd 42b4 35bd 729e b83c
00000120: 43bf 603d 55a3 393d c787 59bc 341f e63c
00000130: 4502 3c3d 8f10 fd3c 7e59 07bd 5216 29bd
00000140: b316 3dbd 9057 5e3d a790 53bd cad1 303d
00000150: 3f41 b4bc be58 30bd 2be0 45bd b874 13bd
00000160: 34ab 84ba 7f68 9e3c 7323 213c cc56 fc3c
00000170: a6a9 723d 658e 2fbd de33 e33c 211b 2a3d
00000180: 2761 41bd 81ef 56bd 1d4c c23c 81fe 9e3c
00000190: 22fb 8f3c 075b 2c3d e011 17bd b6e9 e63c
000001a0: fb9d 053d 353b c6bb dfe7 303d 42b8 10bd
000001b0: acd7 02bd 08ac 8abc f404 5d3d d5c2 12bd
000001c0: 441e 11bd bc66 66bd be27 f8bc 8b8e 273d
000001d0: ea2c 81bd 935c efbb 6c14 e33c 7817 0ebd
000001e0: 3962 2a3d 092c 803d a42b 37bd 6a1a 0d3d
000001f0: 6051 2f3d 0312 023d 3423 cf3c ed5c 18bd
00000200: 34f4 383d 41b4 4d3d c995 09bd 8a5b 153d
00000210: bbdd 213d ceaa 0fbd 4ee1 05bd 0196 c13c
00000220: 5804 963b 4133 5a3b befb 143d e8c0 72bd
00000230: 450e bdbc 1ea8 14bd 0bb2 593d 7942 193d
00000240: 3815 0dbd beba 1cbd 5e87 583d 1079 babc
00000250: c689 27bd 7db0 2a3d ecaf 063d 2158 1b3d
00000260: 65f6 2d3d 1543 1c3d 090e febc ea49 5ebc
00000270: 047e 783d 7fb7 42bd 0729 6d3d 8888 acbc
00000280: 2bb6 a2bc 8dd1 1bbd 5e83 e9bc 8fe9 15bd
00000290: cff2 85bd 3a8e 34bd d83b 34bd a039 afbc
000002a0: 6ed0 97bb 7b1b 10bd e96a cc3c b21f 04bd
000002b0: 913b b43c 0dca 29bd 740a debc ebed 0fbd
000002c0: fab2 adbc ff88 bfbc 6150 12bd ef5f 273b
000002d0: b3a9 fd3c f840 16bd 5ff5 17bd 4e0b 47bd
000002e0: d984 09bd 010e 703c 6538 e83c b344 5c3d
000002f0: c0a8 13bd c5d9 663d 0b9c cdbc 1432 393c
00000300: 3bf4 d8bc b583 0cbd 5f3c c63c 1285 febc
00000310: ad9c 01bd ff98 35bd 0dda 41bd 8be5 91bc
00000320: a673 403d af31 1cbd e8e5 8dbd 4677 243d
00000330: 184b 3dbd e762 72bd c3ba 33bd 1a12 0abd
00000340: ad21 18bd cb92 003d 9f82 36bd 0abb 4c3d
00000350: ae0c 72bd 520a 303d baf6 f53c 8914 28bd
00000360: b3c6 f43c b247 ee3c 222c 873c 360d 1a3d
00000370: 0386 d63c f1e2 27bd 1ba7 14bd 9a20 98bd
00000380: 1bd3 12bd a03f da3c fe69 c63c 51fc 373d
00000390: 46dc 52bd ab91 ffbc bfc0 18bd 3b20 2dbd
000003a0: c733 55bd 5891 53bd fe2b 41bd d5b2 02bd
000003b0: 2201 74bd 14ec e93c 0b4c 49bd 5ca9 e03b
000003c0: 9429 87bc 852a 993c 755e febc bc6b 2dbd
000003d0: b570 cebc 6649 633d b4b8 623d 7ece 153d
000003e0: e23d 16bd 82ca 57bd 8f2b 333d 4fac 5b3d
000003f0: b6a3 2abd e88f 4abd 3ddb 9ebd fd2d 403d

value.2.weight f4 [256, 256]
-0.12631467 -0.04900564 0.15999113 -0.020659246 -0.2569115 -0.053088985 -0.054424454 -0.19928308
0.20562725 -0.13123815 -0.0074379346 0.09665675 -0.06692853 0.24764992 -0.24402897 -0.042867992
0.15985748 -0.17279017 0.21174294 0.054378707 0.020026295 0.055958357 -0.013884839 -0.033675674
-0.26815134 0.009126353 -0.009941806 -0.1565878 0.15908238 -0.008768284 -0.018833637 0.092208944
0.112408265 -0.17095321 0.101955265 -0.081723675 0.12160675 -0.025238514 -0.07340161 -0.26357102
0.054512847 0.14557196 0.13567588 -0.27832413 0.18221268 -0.29118204 -0.2275652 0.09502504
0.11109233 -0.031333204 -0.16434516 0.17303169 -0.04773026 0.22191907 0.04715368 0.042265464
0.10822875 -0.30066472 -0.20183575 -0.014187601 0.1410203 -0.030435158 0.12493094 -0.03896586
0.20784815 -0.31080216 0.043038413 0.10953928 0.029948387 -0.27456248 -0.025192395 -0.1539198
0.11993278 0.24240224 -0.059638657 0.07597429 0.19226559 0.271052 -0.014840911 0.02993363
-0.20670003 -0.14821984 -0.043521654 0.067551605 -0.10385512 0.04709096 -0.09218726 0.06792332
-0.16083568 0.055339158 0.052403837 -0.13201371 0.2012883 -0.043400764 0.14366731 0.1747074
-0.18337546 -0.16305655 0.11204532 0.029887708 0.17995596 0.23358361 -0.121197976 0.20617321
0.007993668 -0.11237162 -0.038290393 -0.22111323 -0.2153852 0.07695526 0.097821176 -0.3137112
-0.160467 -0.23360828 -0.19444993 -0.025940401 -0.14524044 0.0015137959 0.17570102 -0.068923034
0.016807267 0.18925503 0.007428122 -0.11719703 0.22160032 0.23806213 0.027708977 -0.0077274106
0.03038879 0.08068865 0.002057593 0.4554941 0.18475558 0.038142286 -0.13553569 -0.058962982
0.07536178 0.1063979 0.048506267 -0.055364028 0.102375336 -0.11837888 0.0860924 0.26025003
-0.045433044 -0.19598518 0.0340926 0.038541414 -0.043992188 0.15705805 0.2284842 -0.016529275
0.028921682 0.1097076 -0.07900573 -0.083188176 0.17169142 -0.15553431 -0.08373213 -0.065580286
-0.06117823 0.0076448834 -0.03484645 -0.11391916 -0.09210501 -0.22416273 -0.07528736 -0.15200314
0.03746314 -0.15196133 0.36651164 -0.015722241 0.080711186 -0.076018155 -0.1743737 0.06590373
-0.031896092 -0.12839286 0.013404812 -0.17040555 0.14444597 0.021378573 -0.23935272 0.08264648
-0.0030832894 0.08576267 0.25033972 0.08722252 -0.14110947 0.101406336 -0.102550566 0.035492748
0.025665091 -0.008175071 0.29201242 -0.22655803 -0.21360676 0.10136695 -0.09902039 -0.04044372
0.12815972 -0.16107501 -0.055801366 0.15084879 -0.32985747 -0.060780514 -0.15558976 -0.21004923
-0.20382124 0.21533641 -0.287387 -0.12154735 -0.06290606 0.12785226 0.08833721 -0.17219582
-0.02393653 0.2594033 -0.04210669 0.25085834 0.074827075 0.11468775 -0.20083956 -0.0062466585
-0.096331455 0.042597763 0.19087222 0.04164593 -0.0673327 0.054414053 0.11555088 -0.16461095
-0.119245686 -0.02974386 -0.061332498 -0.30736607 0.015752401 0.094503775 -0.17846943 -0.073054515
-0.08455905 0.31434178 -0.14401396 0.031630673 -0.019815395 0.07020503 0.17921396 -0.085542224
-0.010683685 -0.1356516 0.021749437 0.007938088 -0.22261232 -0.044767067 -0.11272817 0.098549895
00000000: a258 01be 23ba 48bd b7d4 233e 943d a9bc
00000010: e789 83be d673 59bd 2dec 5ebd dd10 4cbe
00000020: f38f 523e 4b63 06be ebb9 f3bb f9f3 c53d
00000030: d311 89bd f197 7d3e bbe2 79be 5996 2fbd
00000040: aeb1 233e e8ef 30be 24d3 583e 35bc 5e3d
00000050: 2f0e a43c 9734 653d 3c7d 63bc 81ef 09bd
00000060: 224b 89be b386 153c f5e2 22bc 8d58 20be
00000070: 7ee6 223e d9a8 0fbc 0049 9abc 0bd8 bc3d
00000080: 4e36 e63d 5c0e 2fbe eccd d03d be5e a7bd
00000090: f60c f93d 00c1 cebc 9553 96bd c8f2 86be
000000a0: dd48 5f3d d110 153e 9eee 0a3e 8080 8ebe
000000b0: f695 3a3e d015 95be da06 69be 7d9c c23d
000000c0: 6084 e33d 3f57 00bd 194a 28be 382f 313e
000000d0: ce80 43bd c13e 633e 3824 413d 8d1e 2d3d
000000e0: 09a7 dd3d baf0 99be 08ae 4ebe 1d73 68bc
000000f0: a067 103e 2753 f9bc cbdb ff3d aa9a 1fbd
00000100: 25d6 543e 7621 9fbe 0c49 303d 2156 e03d
00000110: 5256 f53c 7493 8cbe 4860 cebc 279d 1dbe
00000120: 519f f53d 4b38 783e aa47 74bd 6998 9b3d
00000130: 45e1 443e 54c7 8a3e 4b27 73bc 5f37 f53c
00000140: 2ca9 53be f1c6 17be c343 32bd 7f58 8a3d
00000150: feb1 d4bd 73e2 403d adcc bcbd 621b 8b3d
00000160: 1cb2 24be 50ab 623d 68a5 563d 9a2e 07be
00000170: 851e 4e3e 00c5 31bd 861d 133e 7fe6 323e
00000180: c7c6 3bbe 4cf8 26be 0478 e53d 11d7 f43c
00000190: 6046 383e 8b30 6f3e a536 f8bd 121f 533e
000001a0: e0f7 023c 1823 e6bd 63d6 1cbd 826b 62be
000001b0: f08d 5cbe b89a 9d3d 7856 c83d c19e a0be
000001c0: 7651 24be 0237 6fbe e21d 47be f780 d4bc
000001d0: e9b9 14be 906a c63a f8ea 333e 8527 8dbd
000001e0: 65af 893c 12cc 413e 9b67 f33b ff04 f0bd
000001f0: 32eb 623e 8fc6 733e f0fd e23c 3836 fdbb
00000200: e9f1 f83c 1740 a53d afd8 063b 8636 e93e
00000210: 9130 3d3e 163b 1c3d dec9 0abe 2b83 71bd
00000220: 4757 9a3d 24e7 d93d 82ae 463d 64c5 62bd
00000230: 29aa d13d a070 f2bd 3651 b03d 7e3f 853e
00000240: 0018 3abd 57b0 48be afa4 0b3d 9add 1d3d
00000250: 2731 34bd d3d3 203e c3f7 693e 6768 87bc
00000260: 2aed ec3c 61ae e03d c2cd a1bd 905e aabd
00000270: e0cf 2f3e 6344 1fbe c07b abbd f54e 86bd
00000280: 0696 7abd ee81 fa3b 27bb 0ebd 734e e9bd
00000290: 8da1 bcbd ea8a 65be 4230 9abd b6a6 1bbe
000002a0: f372 193d c09b 1bbe 6aa7 bb3e eecb 80bc
000002b0: e84b a53d 68af 9bbd 058f 32be 89f8 863d
000002c0: 7aa5 02bd 6b79 03be db9f 5b3c cb7e 2ebe
000002d0: a5e9 133e 1e22 af3c e118 75be 8f42 a93d
000002e0: 0311 4abb 57a4 af3d 872c 803e b8a1 b23d
000002f0: 007f 10be 20ae cf3d 0806 d2bd d860 113d
00000300: 993f d23c bcf0 05bc a782 953e d4fe 67be
00000310: bbbb 5abe 7a99 cf3d 34cb cabd 50a8 25bd
00000320: 4d3c 033e d9f0 24be f98f 64bd 1b78 1a3e
00000330: 14e3 a8be fdf4 78bd ec52 1fbe 2517 57be
00000340: 84b6 50be 2681 5c3e 6424 93be d1ed f8bd
00000350: e4d4 80bd b4eb 023e 24ea b43d 1a54 30be
00000360: 8b16 c4bc 82d0 843e 1178 2cbd 8170 803e
00000370: f03e 993d 69e1 ea3d e3a8 4dbe c5b0 ccbb
00000380: 6d49 c5bd fe7a 2e3d 0274 433e ec94 2a3d
00000390: bae5 89bd 45e1 5e3d f1a5 ec3d c68f 28be
000003a0: 1537 f4bd 65a9 f3bc c937 7bbd 165f 9dbe
000003b0: 2e0b 813c 328b c13d b1c0 36be 9b9d 95bd
000003c0: 4c2d adbd 68f1 a03e 6578 13be 2a8f 013d
000003d0: e553 a2bc a8c7 8f3d dd83 373e c330 afbd
000003e0: 9f0a 2fbc 41e8 0abe e02b b23c c10e 023c
000003f0: 7cf4 63be ac5d 37bd 07de e6bd 87d4 c93d

value.2.bias f4 [256]
0.050409347 -0.020612862 -0.015027099 0.00400923 -0.027259128 -0.0478402 -0.018019894 0.05913471
0.03304923 0.01987085 0.05236158 0.04566317 0.019188646 -0.03533932 0.045169696 -0.022897456
0.052312423 -0.041075606 0.03214177 0.028584328 0.03172301 -0.008203765 0.05109105 0.041272588
-0.02079158 -0.05748455 -0.007876561 0.039239716 0.03747267 0.028647996 0.030899903 0.03704927
-0.027256109 -0.042016648 -0.03186021 0.02412286 0.021669362 -0.030403633 -0.0221549 0.00705102
0.034557674 0.053383756 0.038809054 0.022333892 0.018805224 -0.030957319 -0.010718664 -0.020884447
0.03904069 0.0058381306 -0.010830006 0.049324516 0.047771182 -0.047977757 -0.019896664 0.015626358
0.014024297 -0.013324123 0.033482995 -0.026251936 0.04042224 -0.03865117 0.037929483 0.02154288
-0.042578857 0.027781002 -0.028307084 0.022405392 -0.036979187 0.035044566 -0.043080464 0.021664789
0.03203664 0.015249734 -0.0019282869 -0.042914223 -0.0068113343 0.02022701 0.03887274 -0.019012235
-0.047013916 0.05469993 -0.024522105 -0.0023044907 0.026653314 -0.024049692 0.061963666 0.03137502
0.03005065 -0.04127174 -0.012606953 0.0146349715 -0.0164629 0.018704811 0.0308891 0.03963643
-0.03017077 0.03181167 -0.020846756 -0.04583399 -0.016904831 0.018241856 -0.034420896 0.044182505
0.024371235 0.03144026 -0.03551896 0.024954207 0.022961916 -0.0167714 -0.040654477 -0.046104737
0.026094172 -0.009752216 0.022384452 -0.03912107 0.043600325 0.026708417 -0.02470841 0.030188033
-0.04254644 -0.0071568964 0.043381672 -0.00073102524 0.006578486 -0.015728252 0.038315162 -0.034240868
-0.014706587 0.04338514 0.05413617 -0.022547277 0.05515539 -0.027547136 -0.019331876 -0.04747126
-0.030848812 -0.0055260835 -0.039619625 -0.033905968 0.02455529 0.036635928 -0.033211354 0.018746028
0.0036574856 0.01858186 0.0037614827 0.05271978 -0.010524124 -0.022950446 -0.044005707 0.04155811
0.027731588 0.0063028615 0.041788924 -0.033200953 -0.06014229 -0.052440867 -0.045599073 0.027724497
0.029277977 -0.014895969 -0.004473864 -0.021917764 -0.013654545 0.02112566 -0.033117853 0.03465393
-0.007730419 -0.026291652 0.033027276 -0.03833669 0.034637075 -0.015570791 0.0133517925 -0.034032162
-0.018732557 0.04026984 -0.037094437 -0.01758428 0.02260026 0.0378078 0.028345367 -0.0017502937
-0.015298567 0.008260666 -0.03947365 0.0017370771 0.0015158833 0.04137122 -0.02260096 0.02301134
-0.013650728 -0.010670207 0.055781513 -0.012011913 -0.029902244 0.03838118 -0.014303966 -0.02106131
-0.009411476 0.027614173 -0.030843012 -0.042238455 -0.03353623 -0.015254397 -0.04176508 0.018855462
-0.037185628 0.056457512 -0.0112695275 0.018362902 0.036016833 0.03327631 -0.03907349 -0.011511521
-0.01648477 0.028714685 -0.022820096 -0.03196647 0.044500943 0.01609787 -0.014616412 0.0064944094
0.036716737 -0.03920755 0.016133143 0.03528259 0.046791993 -0.026383484 0.029422201 -0.010885551
0.04343183 -0.01985633 -0.03093649 0.029776637 -0.026562054 -0.016865326 -0.034894638 0.012823891
-0.047843922 -0.017830303 0.019412363 -0.046667818 -0.03408161 0.022136752 -0.023016563 -0.026469138
0.033972356 0.009475105 0.013873286 -0.022399165 -0.044734124 -0.01761297 0.02755835 0.008095139
00000000: 087a 4e3d 4edc a8bc 3934 76bc dc5f 833b
00000010: 894e dfbc 16f4 43bd 759e 93bc 3d37 723d
00000020: a15e 073d 31c8 a23c 1979 563d 4e09 3b3d
00000030: 8231 9d3c f6bf 10bd dc03 393d 7293 bbbc
00000040: 8d45 563d e53e 28bd 17a7 033d ae29 ea3c
00000050: fdef 013d 1669 06bc d944 513d 720d 293d
00000060: 1b53 aabc eb74 6bbd b10c 01bc d3b9 203d
00000070: f17c 193d 34af ea3c cb21 fd3c fac0 173d
00000080: 3448 dfbc a619 2cbd da7f 02bd 4e9d c53c
00000090: f283 b13c 0a11 f9bc 317e b5bc 3e0c e73b
000000a0: 598c 0d3d eda8 5a3d 3ef6 1e3d 91f5 b63c
000000b0: 6a0d 9a3c 349a fdbc 569d 2fbc dc15 abbc
000000c0: 21e9 1f3d ca4d bf3b 5670 31bc 8108 4a3d
000000d0: b7ab 433d 5384 44bd 54fe a2bc d902 803c
000000e0: 2ac6 653c 6c4d 5abc 7725 093d 4d0e d7bc
000000f0: ca91 253d b050 1ebd f25b 1b3d b27a b03c
00000100: 2b67 2ebd fc94 e33c 42e4 e7bc 838b b73c
00000110: 7d77 17bd e48a 0f3d 2475 30bd 5b7a b13c
00000120: da38 033d 05da 793c 92be fcba d3c6 2fbd
00000130: 9d31 dfbb 1db3 a53c 0639 1f3d 8cbf 9bbc
00000140: aa91 40bd 090d 603d 95e2 c8bc f006 17bb
00000150: 0d58 da3c dc03 c5bc 9dcd 7d3d 1883 003d
00000160: c82c f63c 8e0c 29bd 658d 4ebc 85c7 6f3c
00000170: 34dd 86bc d53a 993c 230b fd3c cf59 223d
00000180: b128 f7bc f44c 023d d1c6 aabc 6cbc 3bbd
00000190: 007c 8abc f26f 953c edfc 0cbd b7f8 343d
000001a0: 2fa6 c73c 81c7 003d 547c 11bd c46c cc3c
000001b0: a11a bc3c 2d64 89bc 4f85 26bd 52d8 3cbd
000001c0: 72c3 d53c c2c7 1fbc 995f b73c 6a3d 20bd
000001d0: 4196 323d 9ccb da3c 4b69 cabc e54c f73c
000001e0: 2d45 2ebd 6684 eabb fbb0 313d 46a2 3fba
000001f0: 5790 d73b 89d8 80bc 5cf0 1c3d 2740 0cbd
00000200: e6f3 70bc 9eb4 313d e3bd 5d3d 11b5 b8bc
00000210: 9eea 613d 88aa e1bc e25d 9ebc 3971 42bd
00000220: a6b6 fcbc 2614 b5bb 3048 22bd fce0 0abd
00000230: 2d28 c93c 8e0f 163d a108 08bd 4591 993c
00000240: 6db2 6f3b fc38 983c 3583 763b b2f0 573d
00000250: 606d 2cbc 9302 bcbc 543f 34bd d638 2a3d
00000260: 5b2d e33c 3c88 ce3b dd2a 2b3d b9fd 07bd
00000270: c357 76bd 3ccc 56bd 18c6 3abd 7c1e e33c
00000280: 5ed8 ef3c 390e 74bc 7e99 92bb e28c b3bc
00000290: 50b7 5fbc b80f ad3c 96a6 07bd 48f1 0d3d
000002a0: 744f fdbb 9761 d7bc 9c47 073d ef06 1dbd
000002b0: 9bdf 0d3d a21c 7fbc 7ac1 5a3c 4f65 0bbd
000002c0: 0575 99bc fdf1 243d 56f0 17bd e80c 90bc
000002d0: 2e24 b93c 5adc 1a3d 8b34 e83c 1c6a e5ba
000002e0: d7a6 7abc bf57 073c 1faf 21bd a3ae e33a
000002f0: 9ab0 c63a de74 293d a625 b9bc 4782 bc3c
00000300: 4ea7 5fbc 18d2 2ebc 287b 643d 9dcd 44bc
00000310: 8df5 f4bc 9635 1d3d 2f5b 6abc c588 acbc
00000320: 9732 1abc 1e37 e23c 7caa fcbc 3b02 2dbd
00000330: 495d 09bd 94ed 79bc dc11 2bbd c576 9a3c
00000340: f54f 18bd fe3f 673d d3a3 38bc cc6d 963c
00000350: 6386 133d bd4c 083d 860b 20bd d29a 3cbc
00000360: 120b 87bc 0f3b eb3c 36f1 babc 46ef 02bd
00000370: 9f46 363d aedf 833c ad79 6fbc 0ecf d43b
00000380: 4a64 163d 1998 20bd a729 843c 7a84 103d
00000390: f6a8 3f3d 2d22 d8bc d406 f13c 4f59 32bc
000003a0: 93e5 313d bea9 a2bc 866e fdbc 22ee f33c
000003b0: aa98 d9bc 2729 8abc aeed 0ebd 4c1b 523c
000003c0: fdf7 43bd db10 92bc ad06 9f3c c126 3fbd
000003d0: 2999 0bbd 2258 b53c 3b8d bcbc ced5 d8bc
000003e0: 9926 0b3d 793d 1b3c c74c 633c 747e b7bc
000003f0: 213b 37bd 1349 90bc 0cc2 e13c 79a1 043c

value.4.weight f4 [1, 256]
0.2654175 -0.2664898 -0.2658019 0.26676196 -0.26784992 -0.25487673 -0.26212874 0.2601209
0.2653249 0.25929478 0.26238263 0.26034564 0.26825267 -0.2644902 0.25576466 -0.26495525
0.26646867 -0.2606145 0.2667197 0.26322976 0.2550933 -0.26830184 0.26535022 0.2557171
-0.26498553 -0.25575334 -0.2577048 0.25972885 0.26107088 0.2650935 0.26602373 0.26385903
-0.26260328 -0.26150212 -0.26823184 0.26868567 0.2636165 -0.2568681 -0.26969346 0.2664035
0.26958197 0.26193145 0.26407433 0.26400968 0.26753455 -0.26463753 -0.26777035 -0.26215863
0.2650269 0.25980145 -0.26608807 0.26137397 0.25962445 -0.2717379 -0.26203147 0.26775005
0.26693454 -0.26562735 0.26216844 -0.26510802 0.2573941 -0.26300845 0.26481435 0.25555602
-0.26722068 0.25943077 -0.2597974 0.2581936 -0.26373133 0.25966027 -0.2681655 0.26273957
0.267958 0.26902667 -0.26689473 -0.26540536 -0.26223996 0.26937637 0.25842363 -0.26460382
-0.25925794 0.2639927 -0.26431444 -0.2673736 0.26815543 -0.25803545 0.26448312 0.26660728
0.26656622 -0.25731996 -0.26345712 0.26671487 -0.26790908 0.26954484 0.2686084 0.26629278
-0.26708058 0.27003792 -0.26598847 -0.2640585 -0.2586683 0.2672988 -0.2626076 0.26566672
0.26502478 0.26651105 -0.268001 0.27110264 0.26348796 -0.2656433 -0.2662258 -0.26062724
0.26478314 -0.26390386 0.26996863 -0.25817758 0.25997746 0.26707423 -0.26163962 0.26741827
-0.25964752 -0.26820457 0.263897 -0.26233187 -0.26715958 -0.26796117 0.26482874 -0.26386884
-0.26698777 0.26319912 0.26656246 -0.26525223 0.25737804 -0.26564074 -0.2656188 -0.26519412
-0.2688587 -0.25661057 -0.25647312 -0.26654562 0.26264068 0.2692086 -0.26073256 0.2656937
0.2676841 0.2677867 0.26605758 0.26315275 -0.2650977 -0.2600749 -0.26680154 0.25978282
0.27154538 0.26737678 0.26532364 -0.2649844 -0.27018994 -0.25947905 -0.26672354 0.2597474
0.27245536 -0.2676413 -0.26742685 -0.26067078 -0.265739 0.26590022 -0.25904185 0.2662805
-0.26806822 -0.26113272 0.2644506 -0.26875937 0.25628343 -0.2615164 0.26708937 -0.256768
-0.2665613 0.26471758 -0.26664376 -0.2621736 0.26258773 0.26545155 0.26574323 0.2692887
-0.26649946 0.26755634 -0.26432267 0.267216 0.2642739 0.27029482 -0.26726365 0.2673497
-0.27085966 -0.26543778 0.2682103 -0.25793794 -0.26528278 0.26214093 -0.2629269 -0.26455706
0.26568 0.2682781 -0.26705825 -0.2660437 -0.260677 -0.265564 -0.2636726 0.2607842
-0.2611906 0.2635168 -0.26697707 0.264924 0.2684345 0.26136953 -0.25721228 -0.26403022
-0.2655549 0.26330575 -0.26079485 -0.25920582 0.26457858 0.25819427 -0.2650086 0.26641712
0.2622617 -0.2652181 0.26002872 0.26868832 0.26600245 -0.2693878 0.2610589 -0.2672606
0.26384598 -0.26644897 -0.26541632 0.26889017 -0.26019815 -0.26980522 -0.2696001 0.2692314
-0.261478 -0.25725394 0.2623203 -0.26910803 -0.2660662 0.26074576 -0.26187086 -0.26235873
0.25864592 0.254476 0.26900038 -0.26591775 -0.26334557 -0.27066752 0.26277578 0.26609147
00000000: cde4 873e 5a71 88be 3017 88be 0695 883e
00000010: a023 89be 347f 82be bd35 86be 912e 853e
00000020: aad8 873e 49c2 843e 0457 863e 064c 853e
00000030: 6a58 893e 426b 87be 96f3 823e 37a8 87be
00000040: 956e 883e 446f 85be 7c8f 883e 0dc6 863e
00000050: 979b 823e dc5e 89be fcdb 873e 5aed 823e
00000060: 2fac 87be 1af2 82be e2f1 83be 2efb 843e
00000070: 15ab 853e 56ba 873e 4334 883e 8818 873e
00000080: f073 86be 9be3 85be af55 89be 2b91 893e
00000090: bef8 863e 3784 83be 4315 8abe 0a66 883e
000000a0: a606 8a3e e11b 863e c034 873e 472c 873e
000000b0: 4afa 883e 927e 87be 3219 89be a839 86be
000000c0: 9bb1 873e b204 853e b23c 88be cfd2 853e
000000d0: 7fed 843e 3b21 8bbe fd28 86be 8916 893e
000000e0: a5ab 883e 4f00 88be f13a 863e 3dbc 87be
000000f0: 29c9 833e 0ba9 86be bf95 873e 3dd8 823e
00000100: 26d1 88be 1cd4 843e 2a04 85be f431 843e
00000110: cb07 87be 31f2 843e fd4c 89be cd85 863e
00000120: ca31 893e ddbd 893e 6da6 88be 36e3 87be
00000130: 5144 86be b3eb 893e 1a50 843e 277a 87be
00000140: 75bd 84be 0d2a 873e 3954 87be 31e5 88be
00000150: ab4b 893e 391d 84be 556a 873e c080 883e
00000160: 5e7b 883e 71bf 83be dae3 86be da8e 883e
00000170: 612b 89be c801 8a3e 0a87 893e 8757 883e
00000180: c9be 88be 6942 8a3e a42f 88be ad32 87be
00000190: 2c70 84be 63db 883e 8174 86be 7805 883e
000001a0: 54b1 873e 2374 883e 6d37 89be f7cd 8a3e
000001b0: e5e7 863e 6602 88be c04e 88be ef70 85be
000001c0: a891 873e 681e 87be 5439 8a3e da2f 84be
000001d0: c41b 853e f4bd 883e a1f5 85be 0ceb 883e
000001e0: 85f0 84be 1c52 89be 821d 873e 5d50 86be
000001f0: 24c9 88be 3532 89be a297 873e d119 87be
00000200: 9fb2 88be 09c2 863e e07a 883e 24cf 87be
00000210: 0ec7 833e 1002 88be 30ff 87be 86c7 87be
00000220: d9a7 89be 7662 83be 7250 83be ab78 88be
00000230: d778 863e b6d5 893e bd7e 85be 0109 883e
00000240: e40d 893e 571b 893e b338 883e f5bb 863e
00000250: e3ba 87be 8a28 85be 369a 88be 4102 853e
00000260: ff07 8b3e 9ce5 883e 80d8 873e 09ac 87be
00000270: 5656 8abe 70da 84be fd8f 88be 9cfd 843e
00000280: 457f 8b3e 4808 89be 2cec 88be a476 85be
00000290: f10e 88be 1324 883e 22a1 84be eb55 883e
000002a0: 3d40 89be 30b3 85be 1266 873e d49a 89be
000002b0: 9537 833e 7ae5 85be f0bf 883e 1877 83be
000002c0: b97a 88be 1089 873e 8885 88be 9e3b 86be
000002d0: e671 863e 44e9 873e 7f0f 883e 35e0 893e
000002e0: 9e72 88be 25fd 883e 4d55 87be 89d0 883e
000002f0: e94e 873e 1564 8a3e c8d6 88be 0fe2 883e
00000300: 1eae 8abe 76e7 87be dc52 893e 7110 84be
00000310: 25d3 87be 5637 863e 5b9e 86be 0674 87be
00000320: 3507 883e bf5b 893e dcbb 88be e136 88be
00000330: 7577 85be 01f8 87be 1800 87be 8285 853e
00000340: c6ba 85be adeb 863e 38b1 88be 1ea4 873e
00000350: 3f70 893e 3ad2 853e 54b1 83be f82e 87be
00000360: d0f6 87be 03d0 863e e786 85be a0b6 84be
00000370: d876 873e 0a32 843e 35af 87be d367 883e
00000380: 2a47 863e abca 87be 7c22 853e 8491 893e
00000390: 7931 883e 33ed 89be 83a9 853e 62d6 88be
000003a0: d216 873e 006c 88be a6e4 87be f9ab 893e
000003b0: b138 85be e923 8abe 0609 8abe b3d8 893e
000003c0: 72e0 85be cab6 83be d94e 863e 87c8 89be
000003d0: d439 88be 7880 853e f013 86be e253 86be
000003e0: 3d6d 843e ae4a 823e 6bba 893e 5f26 88be
000003f0: 3bd5 86be ef94 8abe 8c8a 863e 243d 883e
